models/lenet5_pruned_dense.pth (torch, 250592 bytes, 10 tensors)

conv1.bias f4 [6]
-0.009528146 -0.002846883 -0.011522859 -0.08477213 0.068370454 0.16994192
00000000: f11b 1cbc c592 3abb 60ca 3cbc 039d adbd
00000010: cf05 8c3d 4105 2e3e

conv1.weight f4 [6, 1, 5, 5]
-0.013406598 -0.20440355 -0.06641358 -0.27745757 0.1592505 -0.05579978 -0.063227475 -0.24308115
-0.026809644 0.150535 -0.038224675 0.040268064 0.19863589 0.3802812 0.4715907 0.08609684
0.15295006 0.4318942 0.52139914 -0.11004182 0.0052859625 0.06721442 -0.09186206 -0.71729785
-0.7112219 -0.012353676 0.17126228 0.33648595 -0.13979414 -0.4251122 -0.12410773 0.3312918
0.5704166 0.15622804 -0.4498278 0.35037857 -0.18463838 0.3597807 0.077454284 0.07851774
-0.113032386 -0.5143446 0.37039492 -0.070390046 -0.06746373 -0.15903302 -0.54557073 0.38574332
-0.1695653 -0.06839278 0.009748456 -0.02689748 0.05609821 0.17499779 -0.10203147 -0.23200934
0.032454167 0.029788723 0.29617366 -0.32431614 -0.07656582 0.11773099 -0.2611687 0.73954886
-0.49798748 -0.23945934 0.08324523 -0.2010338 0.6862242 -0.18328463 -0.38658452 0.20838933
0.021462312 0.16896453 0.01952466 -0.0 0.0 0.0 -0.0 0.0
-0.0 0.0 0.0 -0.0 -0.0 0.0 0.0 0.0
-0.0 -0.0 0.0 0.0 -0.0 0.0 0.0 -0.0
0.0 0.0 -0.0 -0.0 0.057144597 0.03446393 -0.14713943 -0.49554583
-0.77731204 0.09840261 0.058735207 -0.013483414 -0.38354388 -0.7774914 -0.114669815 0.59244823
0.4375229 0.44431219 0.19419536 0.101934455 0.26560205 0.05957729 0.14261335 -0.11582316
-0.07460182 0.068465196 0.16513635 0.04942318 0.045658275 0.21233273 -0.2842005 0.08052787
-0.11063129 0.23414287 -0.107254915 -0.71526265 0.1448759 0.1619919 0.27356505 -0.20538166
-0.8201146 0.05873692 0.30552098 0.022801276 0.0005770036 -0.4648296 0.32986075 0.21673357
0.16718124 0.3456889 -0.2736417 -0.0051042624 0.3480436 -0.05389589
00000000: 59a7 5bbc 2a4f 51be d803 88bd eb0e 8ebe
00000010: 9012 233e 4f8e 64bd 687d 81bd 44ea 78be
00000020: e69f dbbc d925 1a3e 7a91 1cbd 20f0 243d
00000030: 3567 4b3e 38b4 c23e 5674 f13e 8a53 b03d
00000040: f19e 1c3e 3d21 dd3e 6a7a 053f 9b5d e1bd
00000050: de35 ad3b b7a7 893d 2d22 bcbd d5a0 37bf
00000060: a312 36bf 1367 4abc 615f 2f3e e347 ac3e
00000070: 3226 0fbe 4ea8 d9be 322c febd 149f a93e
00000080: d306 123f 3efa 1f3e d44f e6be d264 b33e
00000090: d811 3dbe 2d35 b83e 5aa0 9e3d e9cd a03d
000000a0: 867d e7bd 16ac 03bf 67a4 bd3e a828 90bd
000000b0: 6d2a 8abd 8dd9 22be 86aa 0bbf 2680 c53e
000000c0: 87a2 2dbe 8411 8cbd fdb7 1f3c 1b58 dcbc
000000d0: 3dc7 653d 9f32 333e e0f5 d0bd db93 6dbe
000000e0: a9ee 043d 7b07 f43c 13a4 973e c40c a6be
000000f0: 8ace 9cbd f21c f13d e7b7 85be 1353 3d3f
00000100: 37f8 febe d434 75be 7a7c aa3d cedb 4dbe
00000110: 64ac 2f3f f7ae 3bbe 68ee c5be 0364 553e
00000120: bbd1 af3c 0a05 2d3e 2ef2 9f3c 0000 0080
00000130: 0000 0000 0000 0000 0000 0080 0000 0000
00000140: 0000 0080 0000 0000 0000 0000 0000 0080
00000150: 0000 0080 0000 0000 0000 0000 0000 0000
00000160: 0000 0080 0000 0080 0000 0000 0000 0000
00000170: 0000 0080 0000 0000 0000 0000 0000 0080
00000180: 0000 0000 0000 0000 0000 0080 0000 0080
00000190: 7410 6a3d 0d2a 0d3d b8ab 16be 2fb8 fdbe
000001a0: ecfd 46bf 4f87 c93d 5494 703d 8ae9 5cbc
000001b0: dd5f c4be ad09 47bf 02d8 eabd b0aa 173f
000001c0: 0003 e03e e37c e33e 26db 463e 03c3 d03d
000001d0: fefc 873e 5107 743d 3c09 123e b134 edbd
000001e0: d7c8 98bd 7b37 8c3d 8119 293e f66f 4a3d
000001f0: 2c04 3b3d c06d 593e ba82 91be cceb a43d
00000200: a892 e2bd 26c3 6f3e 77a8 dbbd 741b 37bf
00000210: 595a 143e 34e1 253e b810 8c3e 924f 52be
00000220: 08f3 51bf 2096 703d 3f6d 9c3e bec9 ba3c
00000230: 0e42 173a 25fe edbe 82e3 a83e 68ef 5d3e
00000240: 8f31 2b3e 23fe b03e c41a 8cbe a841 a7bb
00000250: c532 b23e f0c1 5cbd

conv2.bias f4 [16]
-0.35737172 -0.10600913 0.22273648 0.3535444 0.032970954 0.21281736 0.42408466 0.07839051
0.24317706 0.26955673 -0.02570782 -0.2174379 0.108541965 0.0154428985 -0.1671419 -0.06796538
00000000: 6df9 b6be 511b d9bd 0815 643e c603 b53e
00000010: 8d0c 073d cbec 593e a021 d93e 348b a03d
00000020: 6803 793e 5703 8a3e 3599 d2bc 0aa8 5ebe
00000030: 404b de3d 3604 7d3c 3f27 2bbe 6f31 8bbd

conv2.weight f4 [16, 6, 5, 5]
-0.14287847 -0.11385606 0.019733854 0.096222065 0.11695059 -0.20915818 0.10230313 -0.26038882
0.14749372 0.05679989 -0.32939565 -0.03097923 0.6097967 0.10003123 -0.32109657 -0.49857005
-0.13265137 -0.1392518 0.024265783 0.004910105 -0.05743972 0.3287349 0.13997786 0.19025676
0.3084906 0.1952996 -0.1446816 0.31091693 0.23363897 -0.41485822 0.19930929 -0.27840832
-0.13795382 0.13881086 -0.050058663 0.29292366 -0.014508602 -0.2640245 -0.27716717 0.11160384
0.35445803 0.0561823 -0.21243553 -0.21997029 0.12644614 0.1016875 0.15759489 0.025738701
-0.16838817 0.4389894 0.24352427 -0.060635123 0.1638651 -0.3013861 -0.11796879 0.156589
-0.3153187 -0.3241948 0.08325419 -0.05257891 0.10171169 -0.14452547 -0.5262543 0.29311684
-0.13822725 0.11835691 0.1266412 -0.046948656 0.3455503 -0.33688506 -0.0061139073 0.079165645
-0.16636352 0.13127998 0.22665435 0.12278216 -0.034431543 -0.14271857 -0.15954186 -0.29367602
0.010343147 0.0041707666 -0.22281253 -0.18259582 -0.11876477 -0.25856432 0.03476358 -0.1255211
-0.09753569 0.05191299 -0.4232124 0.11143788 -0.09085634 -0.0003397801 0.14755772 -0.34576052
0.08481266 0.17717272 0.19425687 0.19951613 -0.14943084 -0.25643864 0.529317 0.8161249
0.477981 0.1529135 -0.16676885 -0.0005043026 0.04148146 0.086318724 0.270693 0.12840705
-0.1389138 -0.035002194 -0.032424536 -0.13792369 0.0063820733 -0.06388145 -0.1437683 0.009645877
-0.28159967 -0.06818516 -0.10915338 -0.20285429 -0.13750482 0.06446009 0.008554767 0.04500285
-0.0020630201 0.16474535 0.10195573 -0.081416726 0.010656494 -0.08105789 0.020977253 0.09419981
-0.16027658 0.1907913 -0.00770503 -0.1600897 0.24842368 -0.013325257 -0.06831867 0.12566118
0.08961535 0.11171549 0.05214716 -0.40663734 -0.17347644 -0.5172831 -0.084753625 0.32829008
-0.22442675 -0.15251414 0.22447534 0.15510468 -0.19593261 -0.3528505 -0.017597131 0.1363065
-0.024555923 -0.10926735 0.19088875 -0.07885635 -0.11299277 -0.054577366 0.03147839 0.3049142
0.2114653 -0.25138456 0.18841906 0.43001083 0.04718688 -0.19027516 0.040162753 -0.5437592
0.05816794 -0.13687363 -0.19566466 -0.40633732 -0.09376785 0.08505765 0.18639296 0.16155861
0.0683561 0.023203133 0.19607106 -0.09614651 -0.082890466 0.22154713 -0.07916809 0.026319433
0.077872425 0.13928618 0.15998624 -0.3135845 -0.13174671 0.076943755 -0.03909399 0.050037008
0.31385323 -0.07095535 0.19871393 -0.32733813 -0.21931003 0.41926333 0.3122009 -0.11064375
-0.5139023 0.011663677 0.10553367 0.03693239 0.24270202 -0.0075383238 0.17647621 -0.13390218
0.06587141 -0.16356829 0.16485102 0.07643522 0.025277197 0.1040293 -0.029642774 0.24236053
-0.16818812 0.060159937 0.13653192 -0.05500043 -0.13392673 -0.47319752 -0.07563833 0.23988797
-0.21986496 -0.13117965 -0.15424173 -0.2206162 -0.019642955 -0.011428775 -0.18798001 0.010617462
-0.17413421 -0.16341539 -0.001090306 -0.10150158 0.035472304 -0.14540298 -0.03222758 0.27523205
-0.1708638 0.022538036 -0.18447953 0.21070406 0.022100156 0.05989265 -0.13839565 -0.2646772
00000000: bc4e 12be 5e2d e9bd e4a8 a13c 1310 c53d
00000010: ca83 ef3d 902d 56be 4e84 d13d af51 85be
00000020: 9808 173e 00a7 683d 8ca6 a8be 27c8 fdbc
00000030: a31b 1c3f 2cdd cc3d c566 a4be 9344 ffbe
00000040: c3d5 07be 0698 0ebe 09c9 c63c f2e4 a03b
00000050: e945 6bbd f14f a83e 5b56 0f3e abd2 423e
00000060: 7bf2 9d3e 9efc 473e 6a27 14be 8130 9f3e
00000070: 0e3f 6f3e 4c68 d4be bc17 4c3e 898b 8ebe
00000080: c443 0dbe 6f24 0e3e 500a 4dbd 17fa 953e
00000090: 7db5 6dbc 382e 87be dbe8 8dbe 8e90 e43d
000000a0: 867b b53e 691f 663d b388 59be e43f 61be
000000b0: 197b 013e 8941 d03d 8e60 213e f8d9 d23c
000000c0: f36d 2cbe 38c3 e03e 6d5e 793e 895c 78bd
000000d0: 41cc 273e 474f 9abe 9f99 f1bd de58 203e
000000e0: 7471 a1be dcfc a5be 2c81 aa3d fc5c 57bd
000000f0: 384e d03d 7cfe 13be 9ab8 06bf 6913 963e
00000100: 728b 0dbe 1c65 f23d 3bae 013e 3c4d 40bd
00000110: f8eb b03e 337c acbe 2c57 c8bb 9921 a23d
00000120: 335b 2abe 426e 063e 1418 683e 3775 fb3d
00000130: 1708 0dbd d124 12be f15e 23be b45c 96be
00000140: 4e76 293c edaa 883b f828 64be 66fa 3abe
00000150: f23a f3bd 8b62 84be 4164 0e3d 9a88 00be
00000160: cbc0 c7bd b7a2 543d 4caf d8be 8b39 e43d
00000170: e412 babd 8324 b2b9 5f19 173e 8607 b1be
00000180: 43b2 ad3d c46c 353e 46eb 463e f54d 4c3e
00000190: 6604 19be ed4b 83be 5281 073f 90ed 503f
000001a0: edb9 f43e 5b95 1c3e 74c5 2abe 2d33 04ba
000001b0: 77e8 293d dfc7 b03d 4698 8a3e 237d 033e
000001c0: 6b3f 0ebe 765e 0fbd 97cf 04bd de3b 0dbe
000001d0: b620 d13b 47d4 82bd ff37 13be be09 1e3c
000001e0: d52d 90be a9a4 8bbd cf8b dfbd 09b9 4fbe
000001f0: 10ce 0cbe a703 843d 4b29 0c3c e954 383d
00000200: bc33 07bb 01b3 283e 2ace d03d d0bd a6bd
00000210: 9398 2e3c ae01 a6bd 7dd8 ab3c d4eb c03d
00000220: 8b1f 24be cb5e 433e 7a7a fcbb 8eee 23be
00000230: c762 7e3e 2e52 5abc a9ea 8bbd 53ad 003e
00000240: 4188 b73d 17cb e43d 4398 553d c532 d0be
00000250: cfa3 31be aa6c 04bf 4f93 adbd a315 a83e
00000260: 20d0 65be ab2c 1cbe dddc 653e c3d3 1e3e
00000270: 8fa2 48be d2a8 b4be dc27 90bc ee93 0b3e
00000280: 8129 c9bc 8fc7 dfbd 5778 433e 707f a1bd
00000290: c168 e7bd 848c 5fbd 7cef 003d b71d 9c3e
000002a0: 5c8a 583e 7ab5 80be edf0 403e 612a dc3e
000002b0: 0847 413d 7ed7 42be b381 243d ce33 0bbf
000002c0: 8141 6e3d 9a28 0cbe 515c 48be 720b d0be
000002d0: 5c09 c0bd b532 ae3d ccdd 3e3e 9f6f 253e
000002e0: 48fe 8b3d 7f14 be3c dac6 483e 76e8 c4bd
000002f0: 7ac2 a9bd 40dd 623e e122 a2bd da9b d73c
00000300: 947b 9f3d 09a1 0e3e 6fd3 233e 268e a0be
00000310: 9ce8 06be b094 9d3d 0521 20bd 9bf3 4c3d
00000320: 5fb1 a03e 0a51 91bd aa7b 4b3e dd98 a7be
00000330: cf92 60be afa9 d63e ccd8 9f3e 3199 e2bd
00000340: 1a8f 03bf 0219 3f3c 0922 d83d 6b46 173d
00000350: e186 783e 0b04 f7bb 2eb6 343e a71d 09be
00000360: 97e7 863d 727e 27be b5ce 283e 128a 9c3d
00000370: 2012 cf3c 500d d53d 67d5 f2bc 5c2d 783e
00000380: 8239 2cbe 446a 763d 06cf 0b3e 2248 61bd
00000390: 1724 09be f246 f2be 45e8 9abd 31a5 753e
000003a0: 4824 61be f553 06be 8bf1 1dbe 37e9 61be
000003b0: 43ea a0bc c23f 3bbc d57d 40be ddf4 2d3c
000003c0: 3d50 32be 5d56 27be 99e8 8eba 0fe0 cfbd
000003d0: 684b 113d 85e4 14be 1101 04bd 37eb 8c3e
000003e0: ecf6 2ebe b0a1 b83c 34e8 3cbe cec2 573e
000003f0: 630b b53c ff51 753d 97b7 0dbe c583 87be

fc1.bias f4 [120]
0.116793804 -0.07839353 -0.050029125 0.05366942 -0.0057916003 0.11290208 0.37884212 -0.070852965
0.013506314 -0.07349699 -0.060210444 0.03657806 -0.06553798 -0.015396942 -0.040102657 -0.00056421035
-0.10537757 0.20106158 -0.005784473 0.046647266 -0.33278793 -0.103914455 0.2759192 0.13095096
0.38222092 0.15890376 0.008414642 -0.29571417 0.003520691 -0.048860453 -0.018883502 0.20152509
-0.058922403 0.19306436 0.030829461 0.35474125 0.40558574 0.103234425 -0.35013655 0.031814296
0.0011735616 0.03191352 -0.08017768 0.16943616 -0.10202713 -0.021878924 -0.0056532617 0.07372025
-0.03174624 -0.055447344 0.102410935 0.11655928 0.09332422 0.100973345 0.28630695 0.46037763
-0.025297187 -0.18498492 -0.08810354 0.1522743 -0.05225369 -0.27143845 0.080938235 -0.011035421
0.012237985 -0.027835004 -0.04753127 0.1966028 -0.20456952 0.36812195 0.11403992 0.16371395
0.21324268 -0.13745695 0.114788845 -0.055928238 -0.055699144 0.15891132 0.57930356 0.09602497
-0.028468847 0.18071032 -0.048711557 0.15461087 -0.037205946 0.005485758 -0.019167349 -0.068433665
-0.23658936 -0.3000597 -0.048084773 0.13658653 0.01110998 0.29303163 0.33779126 0.1829261
0.07510762 -0.017646251 0.022887675 -0.020697078 -0.05779849 -0.081615224 -0.007220521 -0.18434952
0.06565989 -0.10719056 0.266983 0.33380315 -0.009016598 0.0049803313 -0.050441727 -0.060011744
0.26040795 0.0097207595 -0.37865648 -0.36163837 0.06399263 -0.14278516 0.0024717865 -0.16798724
00000000: 9731 ef3d c98c a0bd 57eb 4cbd 77d4 5b3d
00000010: 77c7 bdbb 3539 e73d 98f7 c13e 5c1b 91bd
00000020: 9649 5d3c 9785 96bd 3a9f 76bd e0d2 153d
00000030: c738 86bd 7543 7cbc af42 24bd 84e7 13ba
00000040: 32d0 d7bd 16e3 4d3e ad8b bdbb 3411 3f3d
00000050: 2e63 aabe 1ad1 d4bd 4845 8d3e 0218 063e
00000060: 76b2 c33e abb7 223e 91dd 093c d967 97be
00000070: 65bb 663b e621 48bd 93b1 9abc 985c 4e3e
00000080: 9e58 71bd aab2 453e 118e fc3c a5a0 b53e
00000090: efa8 cf3e 926c d33d 1945 b3be b54f 023d
000000a0: 31d2 993a c0b7 023d 3234 a4bd ac80 2d3e
000000b0: 9af3 d0bd 6e3b b3bc ff3e b9bb a4fa 963d
000000c0: 5808 02bd c11c 63bd d3bc d13d a2b6 ee3d
000000d0: c520 bf3d 1dcb ce3d d396 923e 9eb6 eb3e
000000e0: 0c3c cfbc b06c 3dbe a16f b4bd cbed 1b3e
000000f0: f707 56bd fbf9 8abe f2c2 a53d e9cd 34bc
00000100: d481 483c 3c06 e4bc 26b0 42bd 3f52 493e
00000110: ac7a 51be 7b7a bc3e c38d e93d a1a4 273e
00000120: 4a5c 5a3e 84c1 0cbe 6a16 eb3d 0215 65bd
00000130: c924 64bd a6b9 223e 3d4d 143f bda8 c43d
00000140: 8037 e9bc 200c 393e c585 47bd 5052 1e3e
00000150: 4365 18bd e0c1 b33b d804 9dbc f326 8cbd
00000160: 7b44 72be 6da1 99be 8af4 44bd 57dd 0b3e
00000170: a206 363c 3e08 963e faf2 ac3e fb50 3b3e
00000180: 06d2 993d df8e 90bc ef7e bb3c eb8c a9bc
00000190: 1cbe 6cbd e225 a7bd 1f9a ecbb 1fc6 3cbe
000001a0: b178 863d b986 dbbd ffb1 883e 3fe8 aa3e
000001b0: 5aba 13bc 0c32 a33b fc9b 4ebd e0ce 75bd
000001c0: 3154 853e d243 1f3c 43df c1be aa28 b9be
000001d0: 910e 833d 4636 12be b2fd 213b d904 2cbe

fc1.weight f4 [120, 400]
-0.018176889 0.09866235 0.058063585 -0.23460406 0.28951916 0.35045666 -0.08458679 0.30454162
0.06422954 -0.15662943 -0.14873098 -0.0986005 0.1645214 -0.060984954 -0.38745606 -0.39598075
0.029813029 0.03933114 0.04364506 -0.09736923 0.039607164 -0.062675364 0.064248055 0.08884522
-0.25097176 0.15676562 0.418835 0.14851564 0.014351471 0.24980438 -0.38379145 -0.22010098
-0.385311 0.16335724 -0.18049236 0.06610166 0.032520443 0.3308595 -0.023638515 -0.31887755
0.08338676 -0.041325767 0.22289498 0.16352366 -0.25926298 -0.20840506 0.083285235 -0.17979023
0.17280273 0.13971582 0.2182561 -0.002252705 -0.03886043 0.069485724 -0.22087725 -0.10240023
-0.018899897 -0.08298608 0.053320512 -0.080016635 -0.1721783 0.13350964 -0.018583147 0.03205667
-0.24461469 -0.059291124 0.05118911 -0.024447113 0.094874874 0.088359855 0.4401951 0.1353991
-0.17831123 0.14768259 0.013387803 -0.22658022 0.05977741 0.24241276 -0.08972042 0.2541424
0.2399957 -0.05418244 -0.022106046 -0.011514844 0.26477912 0.013169667 -0.11722984 0.051554672
0.057476595 -0.13236451 -0.42510033 -0.16166551 0.14481875 0.11654926 -0.046462134 0.2713032
-0.11108135 -0.26976013 0.078475416 -0.0881032 0.15739976 -0.14830363 -0.06520303 0.20354803
-0.34208104 -0.02073969 -0.122580595 -0.24451564 -0.0782871 -0.35586554 -0.32366753 0.20003459
0.08383094 0.11297397 0.30720866 -0.03452754 0.19605553 0.021651348 0.40808272 0.32112148
0.088761844 0.032341413 0.119345784 0.09090166 -0.28758442 0.030819649 -0.313168 0.182071
0.16756624 -0.19453466 0.2486982 -0.5012754 -0.035035312 -0.20736745 0.15100852 0.05751609
-0.4007449 -0.22070949 0.37264287 0.07083513 0.2998524 -0.13498016 -0.023019439 -0.07849604
0.2915911 0.29705098 -0.2800406 0.072079845 -0.24570286 0.27387086 0.09493296 0.033162467
0.51248384 0.27745134 -0.045046434 0.0802916 0.058464974 0.10529493 -0.34034482 -0.17897318
0.18496169 0.15916449 -0.17450716 -0.031096864 -0.42803004 0.12397929 0.14122483 0.06275063
-0.009359868 -0.6335249 -0.09065805 0.049396016 -0.023533514 -0.28432202 -0.23217067 0.38622767
0.05511592 0.09320349 -0.015556658 -0.086065345 -0.4060481 -0.09881333 -0.004113694 0.15404187
-0.07031789 -0.30478284 -0.14543729 0.0262457 0.0639134 -0.07735264 -0.1238708 -0.21838877
-0.24761769 0.17133187 -0.06973895 0.105871186 -0.289737 -0.20106632 0.15903735 0.22554483
-0.19336028 0.16839975 0.17800924 0.034672454 -0.11712588 0.183177 -0.08149377 0.15245035
-0.23352946 -0.07790715 -0.42001992 0.03842146 -0.11334782 -0.025853602 0.1420511 -0.13110116
0.17752813 -0.07566254 -0.013456232 -0.2712161 0.0360781 0.03576399 0.039545972 -0.0071108504
-0.0076788585 -0.093489945 0.15342712 0.07827656 -0.310882 0.1567309 0.40250483 -0.2730385
-0.039542016 0.5487548 0.35465923 0.3778269 0.08272294 -0.3541374 0.06581333 0.44822153
-0.10925946 -0.06685378 0.23940487 0.19140574 0.1358522 -0.18613434 -0.099286005 0.17927578
0.039487395 0.275809 0.574341 -0.11638234 0.0029445624 0.09140476 -0.24994661 0.26547977
00000000: b3e7 94bc 7c0f ca3d 15d4 6d3d 0c3c 70be
00000010: db3b 943e 0e6f b33e d73b adbd e1ec 9b3e
00000020: c78a 833d 7763 20be ef4c 18be 0fef c9bd
00000030: 4c78 283e 5ccb 79bd a460 c6be fdbd cabe
00000040: 743a f43c b119 213d 2ac5 323d 8569 c7bd
00000050: 1f3b 223d f15b 80bd 7c94 833d 7cf4 b53d
00000060: 5f7f 80be 2b87 203e 8b71 d63e 7c14 183e
00000070: 6f22 6b3c b8cc 7f3e 5080 c4be 2762 61be
00000080: 7c47 c5be 1f47 273e fdd2 38be 4f60 873d
00000090: 2834 053d 6b66 a93e 8fa5 c1bc eb43 a3be
000000a0: adc6 aa3d 3545 29bd 953e 643e bf72 273e
000000b0: 1ebe 84be 2368 55be 7391 aa3d ee1a 38be
000000c0: 33f3 303e aa11 0f3e 877e 5f3e 1ea2 13bb
000000d0: 1d2c 1fbd 884e 8e3d a52d 62be 36b7 d1bd
000000e0: f5d3 9abc 9bf4 a9bd 9c66 5a3d c3df a3bd
000000f0: 824f 30be c0b6 083e af3b 98bc db4d 033d
00000100: 467c 7abe 40db 72bd acab 513d 5045 c8bc
00000110: c24d c23d 03f6 b43d 4161 e13e 10a6 0a3e
00000120: 3897 36be 1b3a 173e 8458 5b3c a504 68be
00000130: 28d9 743d 0d3b 783e 57bf b7bd f41e 823e
00000140: 6fc1 753e 68ee 5dbd bd17 b5bc c2a8 3cbc
00000150: 2191 873e 96c5 573c 3316 f0bd fe2a 533d
00000160: 946c 6b3d 908a 07be c0a6 d9be a58b 25be
00000170: 5e4b 143e 61b1 ee3d 144f 3ebd 41e8 8a3e
00000180: 9e7e e3bd 001e 8abe b8b7 a03d 736f b4bd
00000190: 672d 213e e8dc 17be 2b89 85bd e56e 503e
000001a0: 3f25 afbe 48e6 a9bc 890b fbbd 4f62 7abe
000001b0: fd54 a0bd 0234 b6be c0b7 a5be ded5 4c3e
000001c0: 8eaf ab3d e65e e73d 744a 9d3e c06c 0dbd
000001d0: c8c2 483e 2b5e b13c 38f0 d03e 096a a43e
000001e0: c5c8 b53d 6e78 043d 906b f43d a62a ba3d
000001f0: 443e 93be 7d79 fc3c 8e57 a0be d270 3a3e
00000200: 7c96 2b3e 1834 47be beaa 7e3e 9653 00bf
00000210: 3081 0fbd 2258 54be faa1 1a3e fe95 6b3d
00000220: 6f2e cdbe ab01 62be 0ccb be3e 0212 913d
00000230: 4186 993e 3d38 0abe 4393 bcbc 88c2 a0bd
00000240: 6e4b 953e 1117 983e 7b61 8fbe 999e 933d
00000250: 8899 7bbe cd38 8c3e 366c c23d 5ed5 073d
00000260: 2432 033f 1a0e 8e3e 9c82 38bd ec6f a43d
00000270: f878 6f3d dea4 d73d ad41 aebe bf44 37be
00000280: 9966 3d3e 04fc 223e 01b2 32be dabe febc
00000290: c126 dbbe dbe8 fd3d 3e9d 103e 6783 803d
000002a0: 225a 19bc b02e 22bf edaa b9bd 7a53 4a3d
000002b0: 5bc9 c0bc a892 91be 26be 6dbe a2bf c53e
000002c0: 3bc1 613d 79e1 be3d 5ae1 7ebc 0743 b0bd
000002d0: 89e5 cfbe a55e cabd 2bcc 86bb 27bd 1d3e
000002e0: d302 90bd 7f0c 9cbe 83ed 14be 3901 d73c
000002f0: 07e5 823d 106b 9ebd f9af fdbd 4ea1 5fbe
00000300: 7e8f 7dbe 9f71 2f3e 4bd3 8ebd fed2 d83d
00000310: 6858 94be 54e4 4dbe b0da 223e 39f5 663e
00000320: 3d00 46be fc70 2c3e 0e48 363e b404 0e3d
00000330: b2df efbd c092 3b3e 35e6 a6bd f21b 1c3e
00000340: 5922 6fbe c98d 9fbd da0c d7be d25f 1d3d
00000350: e722 e8bd efca d3bc d875 113e 623f 06be
00000360: efc9 353e f6f4 9abd 8777 5cbc d6dc 8abe
00000370: a1c6 133d 437d 123d f5fa 213d 2302 e9bb
00000380: ef9e fbbb a877 bfbd 001c 1d3e 764f a03d
00000390: ed2b 9fbe 117e 203e 1d15 ce3e b4cb 8bbe
000003a0: cff6 21bd 327b 0c3f e595 b53e 8772 c13e
000003b0: a56a a93d 7f51 b5be 24c9 863d 4b7d e53e
000003c0: 6cc3 dfbd a2ea 88bd 8d26 753e deff 433e
000003d0: d71c 0b3e 009a 3ebe 7656 cbbd 1294 373e
000003e0: 89bd 213d d636 8d3e 0308 133f dd59 eebd
000003f0: 8ff9 403b 6b32 bb3d 01f2 7fbe f7ec 873e

fc2.bias f4 [84]
0.17798068 0.22321956 -0.080529414 0.015266479 0.21241422 0.07026766 0.20332755 0.16317157
-0.0810751 0.23003133 -0.1636938 -0.0986412 0.18523161 0.31184602 0.26756716 0.009710069
-0.0997803 0.12706286 -0.19317926 0.04226495 0.12632905 0.3244309 -0.008005004 0.122330986
0.30289966 0.0640332 0.29466394 0.18871321 -0.14025941 0.27636352 0.37963077 0.33695167
-0.09843314 0.074131444 -0.09542794 0.12681767 0.29911712 0.13302039 0.316799 -0.031145925
0.058017816 -0.25918683 0.1143409 -0.09614217 -0.1633016 0.31018797 -0.02443238 0.10248125
0.46829334 0.48091528 -0.05442149 0.0061717955 0.3473616 0.12532178 0.24773225 0.09784318
-0.18600285 0.46788597 0.17924757 0.13724671 0.083615676 0.105886295 -0.13248113 0.113917015
-0.001673833 -0.19691738 -0.12601312 0.027531553 -0.14321657 0.47923696 0.10973643 -0.01107805
-0.047987904 0.32068652 0.10768669 0.28722265 0.017842477 -0.19555773 -0.08923146 -0.0829514
-0.2744869 0.17691416 -0.16017027 0.39424568
00000000: 9140 363e ab93 643e 9bec a4bd 4120 7a3c
00000010: 1d83 593e 7ee8 8f3d 1935 503e 7316 273e
00000020: b40a a6bd 558d 6b3e 599f 27be 6604 cabd
00000030: 5bad 3d3e 48aa 9f3e 90fe 883e fb16 1f3c
00000040: 9d59 ccbd c41c 023e c9d0 45be 031e 2d3d
00000050: 675c 013e cf1b a63e 6c27 03bc ab88 fa3d
00000060: aa15 9b3e d723 833d 31de 963e 093e 413e
00000070: 2aa0 0fbe 857f 8d3e f75e c23e ee84 ac3e
00000080: 5097 c9bd 3ad2 973d b96f c3bd 7edc 013e
00000090: e125 993e 7f36 083e 7b33 a23e bd25 ffbc
000000a0: 17a4 6d3d 23b4 84be 902b ea3d 30e6 c4bd
000000b0: 8938 27be f5d0 9e3e 6a26 c8bc b1e1 d13d
000000c0: 25c4 ef3e 873a f63e 11e9 5ebd c63c ca3b
000000d0: 61d9 b13e 5a54 003e 86ad 7d3e 0162 c83d
000000e0: 8877 3ebe c08e ef3e ad8c 373e 678a 0c3e
000000f0: b23e ab3d eada d83d 22a9 07be 534d e93d
00000100: 8464 dbba b6a4 49be 9509 01be da89 e13c
00000110: 5da7 12be 8c5e f53e 7ebd e03d b680 35bc
00000120: f78e 44bd 0631 a43e d78a dc3d d90e 933e
00000130: 632a 923c 4940 48be fcbe b6bd 6ce2 a9bd
00000140: 8c89 8cbe fc28 353e ad03 24be 92da c93e

fc2.weight f4 [84, 120]
-0.0 -0.0 -0.0 -0.0 -0.0 0.0 0.0 -0.0
0.0 -0.0 0.0 0.0 0.0 -0.0 -0.0 -0.0
0.0 0.0 0.0 -0.0 0.0 0.0 0.0 -0.0
0.0 -0.0 0.0 -0.0 0.0 -0.0 0.0 -0.0
-0.0 0.0 0.0 0.0 -0.0 0.0 -0.0 0.0
-0.0 -0.0 0.0 -0.0 -0.0 -0.0 -0.0 0.0
-0.0 0.0 -0.0 0.0 -0.0 -0.0 -0.0 0.0
0.0 -0.0 0.0 0.0 0.0 -0.0 -0.0 -0.0
-0.0 -0.0 -0.0 0.0 -0.0 0.0 0.0 -0.0
-0.0 0.0 -0.0 -0.0 -0.0 0.0 -0.0 0.0
0.0 0.0 -0.0 -0.0 -0.0 -0.0 -0.0 -0.0
-0.0 -0.0 0.0 0.0 0.0 0.0 0.0 0.0
0.0 -0.0 0.0 0.0 0.0 -0.0 0.0 0.0
-0.0 0.0 0.0 0.0 0.0 -0.0 0.0 0.0
0.0 0.0 -0.0 -0.0 0.0 -0.0 0.0 0.0
0.2815656 -2.630879e-05 0.07138627 -0.10627098 0.017966282 0.032888703 0.016856322 0.035503432
0.052075785 0.05880241 -0.038240924 -0.07602614 -0.1349929 0.025216734 0.09356727 -0.036207393
-0.32622087 -0.039618313 -0.046478488 0.10389134 -0.025200063 0.0010574074 0.07454124 0.18651728
-0.045465644 -0.22907265 -0.019871457 -0.27005535 0.09590112 0.25006458 0.071986884 0.08642558
0.14006265 0.1954389 -0.04843292 -0.022736171 0.44699168 0.17387025 -0.5525358 0.3068037
-0.03448901 0.008974205 0.042374283 -0.19280005 0.003511194 -0.035730008 -0.09028143 -0.04090232
0.06322976 0.065172836 0.25339556 0.051323514 0.1928576 -0.0051344577 -0.03866671 -0.059242416
-0.039220523 0.24904905 0.024003144 0.39870286 -0.033545658 -0.33299392 0.352977 0.26117334
-0.17908646 0.04175444 0.38894558 -0.31559956 -0.10249942 -0.12268411 0.4225032 -0.79497284
0.37391812 -0.15146963 -0.14080533 0.14030387 -0.40322486 -0.17818359 0.15187249 0.2632277
0.057009444 0.38910908 0.2121331 0.12263494 0.028083263 0.08856955 -0.06576316 0.12037765
-0.6670117 0.052838646 0.07282678 0.045663215 0.3628572 -0.2678164 0.120371476 0.19151558
-0.04787605 0.045214105 -0.13295358 -0.09244876 0.07909412 -0.2967559 -0.060344517 -0.15771045
0.07217998 -0.002675246 -0.5640261 0.027979547 -0.02568905 -0.034112837 0.0670766 -0.47214678
-0.30156887 -0.045484375 -0.15276474 0.056572713 -0.10539833 -0.0014418332 0.2540302 -0.06254952
0.09824996 -0.024705023 0.0033761964 -0.012033654 -0.03825598 0.17928429 -0.23002596 -0.021928692
0.025456762 0.09341521 -0.05165104 -0.053363975 -0.104014926 0.091891095 -0.02959701 0.010155723
00000000: 0000 0080 0000 0080 0000 0080 0000 0080
00000010: 0000 0080 0000 0000 0000 0000 0000 0080
00000020: 0000 0000 0000 0080 0000 0000 0000 0000
00000030: 0000 0000 0000 0080 0000 0080 0000 0080
00000040: 0000 0000 0000 0000 0000 0000 0000 0080
00000050: 0000 0000 0000 0000 0000 0000 0000 0080
00000060: 0000 0000 0000 0080 0000 0000 0000 0080
00000070: 0000 0000 0000 0080 0000 0000 0000 0080
00000080: 0000 0080 0000 0000 0000 0000 0000 0000
00000090: 0000 0080 0000 0000 0000 0080 0000 0000
000000a0: 0000 0080 0000 0080 0000 0000 0000 0080
000000b0: 0000 0080 0000 0080 0000 0080 0000 0000
000000c0: 0000 0080 0000 0000 0000 0080 0000 0000
000000d0: 0000 0080 0000 0080 0000 0080 0000 0000
000000e0: 0000 0000 0000 0080 0000 0000 0000 0000
000000f0: 0000 0000 0000 0080 0000 0080 0000 0080
00000100: 0000 0080 0000 0080 0000 0080 0000 0000
00000110: 0000 0080 0000 0000 0000 0000 0000 0080
00000120: 0000 0080 0000 0000 0000 0080 0000 0080
00000130: 0000 0080 0000 0000 0000 0080 0000 0000
00000140: 0000 0000 0000 0000 0000 0080 0000 0080
00000150: 0000 0080 0000 0080 0000 0080 0000 0080
00000160: 0000 0080 0000 0080 0000 0000 0000 0000
00000170: 0000 0000 0000 0000 0000 0000 0000 0000
00000180: 0000 0000 0000 0080 0000 0000 0000 0000
00000190: 0000 0000 0000 0080 0000 0000 0000 0000
000001a0: 0000 0080 0000 0000 0000 0000 0000 0000
000001b0: 0000 0000 0000 0080 0000 0000 0000 0000
000001c0: 0000 0000 0000 0000 0000 0080 0000 0080
000001d0: 0000 0000 0000 0080 0000 0000 0000 0000
000001e0: 5e29 903e b2b1 dcb7 f732 923d 99a4 d9bd
000001f0: 062e 933c 4eb6 063d 4516 8a3c 0c6c 113d
00000200: 6b4d 553d ccda 703d 84a2 1cbd 98b3 9bbd
00000210: 943b 0abe 5393 ce3c 32a0 bf3d 344e 14bd
00000220: 6c06 a7be d046 22bd 3a60 3ebd fcc4 d43d
00000230: 5d70 cebc b498 8a3a 14a9 983d 63fe 3e3e
00000240: 2f3a 3abd 0592 6abe 77c9 a2bc b244 8abe
00000250: ce67 c43d 7708 803e dc6d 933d e5ff b03d
00000260: 956c 0f3e 2321 483e 9961 46bd 3541 babc
00000270: 18dc e43e 0b0b 323e fc72 0dbf 6015 9d3e
00000280: 5944 0dbd 8b08 133c a890 2d3d 606d 45be
00000290: 0f1c 663b a159 12bd 78e5 b8bd 3189 27bd
000002a0: 9b7e 813d 5679 853d 10bd 813e 9b38 523d
000002b0: 767c 453e f43e a8bb fc60 1ebd 2da8 72bd
000002c0: b3a5 20bd b706 7f3e 3ea2 c43c c822 cc3e
000002d0: 2c67 09bd 2e7e aabe 67b9 b43e 83b8 853e
000002e0: 7162 37be b406 2b3d e023 c73e 4496 a1be
000002f0: 37eb d1bd cf41 fbbd 5752 d83e 5783 4bbf
00000300: 3272 bf3e db1a 1bbe 462f 10be d1ab 0f3e
00000310: 7d73 cebe c275 36be 7684 1b3e c8c5 863e
00000320: bc82 693d 4e39 c73e 6b39 593e 0728 fb3d
00000330: df0e e63c f463 b53d d6ae 86bd 8f88 f63d
00000340: 47c1 2abf 566d 583d 3526 953d 5a09 3b3d
00000350: 6bc8 b93e 3b1f 89be 5285 f63d a91c 443e
00000360: ad19 44bd 6d32 393d fc24 08be c755 bdbd
00000370: 19fc a13d 64f0 97be d02b 77bd d97e 21be
00000380: 19d3 933d 2e53 2fbb 0464 10bf 5d35 e53c
00000390: d871 d2bc e7b9 0bbd 755f 893d 39bd f1be
000003a0: 3c67 9abe d34d 3abd 5c6e 1cbe cab8 673d
000003b0: 14db d7bd e5fb bcba 3f10 823e f619 80bd
000003c0: 4637 c93d 3062 cabc 2d43 5d3b ce28 45bc
000003d0: 4db2 1cbd 4d96 373e ed8b 6bbe cda3 b3bc
000003e0: b38a d03c 7950 bf3d 0a90 53bd 2f94 5abd
000003f0: c705 d5bd 6631 bc3d 6e75 f2bc 3164 263c

fc3.weight f4 [10, 84]
0.07849221 0.044524264 0.31009248 0.06541826 -0.59690756 0.04513248 -0.89028144 0.1353002
0.5413218 -0.58186716 -0.13152215 -0.124607526 -0.11254922 -0.7050933 -0.14427818 0.31662247
0.02609741 0.14333422 0.27495438 -0.20298848 -0.8560684 -0.47554228 -0.5637726 -0.1408274
-0.32203698 -0.60840255 0.103066176 0.22368667 -0.9598646 -1.0294882 0.023491973 0.30552292
0.26300573 -0.27152798 -0.6942222 0.14210655 0.19655928 0.3403596 -0.1556059 0.112727195
0.026277173 -0.40804198 -0.124902114 -0.749085 -0.14394136 0.24085544 0.06461329 -0.8945997
-0.0031246783 0.22098804 -0.34919402 -0.06722245 -0.7104461 -0.54899484 -0.50238824 0.042884964
0.24424268 0.20723027 -0.50084376 -0.4892422 0.09237217 -0.84312224 0.16621344 -0.11262557
-0.2734255 -0.024520213 -0.05788508 -0.14199714 -0.09984379 0.04635041 0.25101665 0.022747234
-0.4610186 -0.0004989825 0.07830045 -0.2757389 -0.10510607 -0.16252252 -0.0031153993 0.08416968
0.1675895 0.13918214 -0.03171071 -0.58087593 -0.6789548 0.13242231 0.44533902 -1.1557968
-0.58460116 0.16917054 -0.32627958 -0.18567401 -0.4068799 0.47490352 -0.4947803 -0.14694466
-0.38101777 -0.087206684 -0.18459661 0.45294988 -0.056049187 -0.34111413 -0.37614042 -0.53774834
-0.0501704 0.19333652 0.2074893 -0.97095335 0.07035861 0.85827464 -0.19997747 0.2550316
0.54790956 -0.36345115 0.27272984 -0.6417974 -0.20891874 -0.007439569 -0.46782586 -0.92840856
0.35356143 -0.30994326 -0.14460054 0.11233725 0.37401456 -0.4696334 0.31142184 -0.22549051
-0.24546407 -0.41046286 -1.0764121 -0.6799024 -0.8527891 -0.08967031 0.09169286 -0.80798316
-0.50757164 0.100951664 0.20656909 -0.8176528 -0.3404076 -0.5203185 -0.60016537 -0.55005294
-0.8856392 -0.6430157 -0.9038941 -1.1089808 0.5222685 0.27188984 -0.010785923 -0.46556845
-0.44487956 -0.41085157 -0.15147823 -0.2726004 -0.6785308 -0.3118738 -0.3544203 -0.63332003
-0.37556174 -0.24660619 -1.2640154 -0.6147352 -0.007405111 0.012502037 -0.43261844 0.17554148
0.24901046 -0.5336401 -0.38138437 0.058517657 0.14951621 -0.35415307 -0.29857382 -0.3639754
-0.35435668 0.06192098 0.13162729 0.11490264 -0.4919578 -0.4045619 0.07200962 -0.15807055
-0.0032824073 0.11380885 -0.08603456 0.2240326 0.04837861 0.12903805 0.18574524 0.11693761
-0.6531873 -0.19364952 -0.57176405 -0.8067089 -0.38115942 0.36179006 0.06665978 0.15705773
-0.06851046 0.24557333 -0.41980368 -0.2106301 0.15475549 -0.117418274 -0.67203325 -1.0420184
0.117326476 -0.602369 -0.21786815 -0.18008392 -0.101245284 0.053884 0.05216647 0.013226515
0.505216 0.19894615 0.13265105 -0.5938167 0.09770229 -0.4010103 -0.24912691 -0.5324656
0.20063484 0.20627804 0.061689023 -0.08685106 0.11264229 0.19096772 -0.00784355 -1.034609
0.25935593 -0.025022708 -0.05124412 -0.6357912 -0.30884498 0.20444438 -0.6594077 -0.23429212
-0.22893527 -0.32505137 0.22364523 0.170749 0.024197578 0.0637071 -0.4579973 0.17680366
0.031320184 -0.6194981 0.007931188 -0.6439776 -0.037558947 0.23216334 -0.24074502 -0.5769815
00000000: 86c0 a03d 135f 363d 71c4 9e3e 02fa 853d
00000010: efce 18bf d6dc 383d 7ce9 63bf 238c 0a3e
00000020: 1194 0a3f 3ff5 14bf bead 06be 3b32 ffbd
00000030: 3580 e6bd ff80 34bf a9bd 13be 571c a23e
00000040: 3cca d53c 35c6 123e d2c6 8c3e 36dc 4fbe
00000050: 4c27 5bbf 477a f3be 6753 10bf 0f35 10be
00000060: 08e2 a4be 45c0 1bbf 5c14 d33d 1e0e 653e
00000070: b0b9 75bf 45c6 83bf 3d72 c03c 806d 9c3e
00000080: b0a8 863e b705 8bbe 8cb8 31bf 6184 113e
00000090: d646 493e 9d43 ae3e 2757 1fbe 84dd e63d
000000a0: 3a43 d73c e1ea d0be aecc ffbd 09c4 3fbf
000000b0: 5d65 13be cfa2 763e f953 843d 7c04 65bf
000000c0: 67c7 4cbb b04a 623e 8fc9 b2be edab 89bd
000000d0: ccdf 35bf ed8a 0cbf 849c 00bf 25a8 2f3d
000000e0: c11a 7a3e 2c34 543e 4c37 00bf f47d fabe
000000f0: 9f2d bd3d dcd6 57bf db33 2a3e 3ca8 e6bd
00000100: 6dfe 8bbe 9dde c8bc e818 6dbd b367 11be
00000110: e77a ccbd edd9 3d3d 4185 803e 6858 ba3c
00000120: a10a ecbe 26ce 02ba fd5b a03d a62d 8dbe
00000130: da41 d7bd 4e6c 26be ba2b 4cbb 2761 ac3d
00000140: 959c 2b3e c385 0e3e 17e3 01bd 49b4 14bf
00000150: fbcf 2dbf b799 073e 7a03 e43e 26f1 93bf
00000160: 6ca8 15bf 0b3b 2d3e 1e0e a7be 5421 3ebe
00000170: 9052 d0be 8e26 f33e d853 fdbe a978 16be
00000180: c314 c3be 6b99 b2bd e506 3dbe 0ce9 e73e
00000190: d593 65bd 83a6 aebe 7a95 c0be e0a9 09bf
000001a0: 7a7f 4dbd 02fa 453e 1378 543e 6690 78bf
000001b0: 2d18 903d e3b7 5b3f e5c6 4cbe 8093 823e
000001c0: cd43 0c3f 4516 babe 3fa3 8b3e d64c 24bf
000001d0: cbee 55be a1c7 f3bb df86 efbe 2fac 6dbf
000001e0: 0106 b53e e2b0 9ebe 2a12 14be 1211 e63d
000001f0: d67e bf3e ca73 f0be af72 9f3e fce6 66be
00000200: ef5a 7bbe 3028 d2be dfc7 89bf 150e 2ebf
00000210: 6350 5abf 11a5 b7bd 77c9 bb3d fcd7 4ebf
00000220: 37f0 01bf bfbf ce3d d986 533e b251 51bf
00000230: e849 aebe 9833 05bf 70a4 19bf 45d0 0cbf
00000240: 40b9 62bf ad9c 24bf 9b65 67bf 15f3 8dbf
00000250: 63b3 053f 2535 8b3e 71b7 30bc fd5e eebe
00000260: 41c7 e3be 235b d2be 1c1d 1bbe 4892 8bbe
00000270: 32b4 2dbf ecad 9fbe 9476 b5be 4321 22bf
00000280: a149 c0be 5586 7cbe 42cb a1bf 495f 1dbf
00000290: 93a6 f2bb 58d5 4c3c 2a80 ddbe 25c1 333e
000002a0: 99fc 7e3e a39c 08bf d044 c3be 36b0 6f3d
000002b0: c71a 193e 8d53 b5be abde 98be fc5a babe
000002c0: 3d6e b5be dba0 7d3d 4ec9 063e 1352 eb3d
000002d0: e5e1 fbbe bd22 cfbe c879 933d 3fdd 21be
000002e0: a81d 57bb 9d14 e93d e332 b0bd cd68 653e
000002f0: a628 463d 8d22 043e 0034 3e3e fc7c ef3d
00000300: 4837 27bf 0f4c 46be 215f 12bf 7984 4ebf
00000310: 5427 c3be 8c3c b93e ec84 883d bed3 203e
00000320: 364f 8cbd 9377 7b3e 82f0 d6be 6baf 57be
00000330: 3978 1e3e fe78 f0bd 5f0a 2cbf dc60 85bf
00000340: dd48 f03d db34 1abf d418 5fbe eb67 38be
00000350: b059 cfbd 78b5 5c3d 82ac 553d 06b4 583c
00000360: d655 013f 8ab8 4b3e add5 073e 5f04 18bf
00000370: 2318 c83d 3951 cdbe 201b 7fbe aa4f 08bf
00000380: 3873 4d3e 8d3a 533e a1ad 7c3d f8de b1bd
00000390: 00b1 e63d 0b8d 433e 3c82 00bc 116e 84bf
000003a0: 4dca 843e 6cfc ccbc 5be5 51bd 36c3 22bf
000003b0: ee20 9ebe de59 513e f1ce 28bf 46ea 6fbe
000003c0: 026e 6abe 226d a6be 4103 653e d3d8 2e3e
000003d0: 003a c63c de78 823d 9f7e eabe 050c 353e
000003e0: 9849 003d 6d97 1ebf d0f1 013c b7db 24bf
000003f0: 69d7 19bd 3abc 6d3e dd85 76be 0fb5 13bf

fc3.bias f4 [10]
-0.13310575 -0.1839356 0.16000201 0.37180334 -0.15039478 -0.085564815 0.12242459 0.11372501
0.08250182 -0.2023009
00000000: e04c 08be 9d59 3cbe 91d7 233e 025d be3e
00000010: 1701 1abe 9b3c afbd beb9 fa3d a8e8 e83d
00000020: b7f6 a83d f827 4fbe
