models/lenet5_fashion_mnist.pth (torch, 250606 bytes, 10 tensors)

conv1.weight f4 [6, 1, 5, 5]
00000000: a5dc 7cbc b059 d53d 1a7e 1dbd e16b 553d
00000010: 4fe9 af3c 6d14 6b3e ff6f 2f3e feec 04be
00000020: 1f99 d13d 94a4 053b 1f11 613e 0b44 0f3e
00000030: 8df0 1f3d afca 6b3e c7c8 c93d 5f39 e33d
00000040: eedc 663d d067 023e 52fd e83c fcfb 1c3d
00000050: 00f3 903d 300a 7dbd aa8f 603e 425f 1bbe
00000060: 825d 383d 5785 7cbe a172 9a3d 9b11 96bd
00000070: 58ac 1bbe a199 593d 457a 84be 5027 f0bc
00000080: ad26 d7bb df84 053e 08bc eb3d 3256 f03d
00000090: e341 d1bd 313a 7ebd 3ab7 6abd e337 4f3e
000000a0: 62f9 b9bd 6466 d8bd 376f 413e 4169 b33c
000000b0: 1364 9ebd e08f f5bd 6811 0d3e c4d5 b3bd
000000c0: ad90 6c3d bb52 9c3d 2545 6e3e 970a 903d
000000d0: de42 b0bd 3ae8 223e 59cf 353e de59 493d
000000e0: a3d9 193e bb15 f23d 82db d3bc c9a6 363c
000000f0: 710f 9c3d 2ce4 f83c d17c 05be ea4e 99bd
00000100: a18f d03d 59e3 b63d 92f0 19be f05a 143e
00000110: 70be ed3d 001f af3d 9ad3 2e3e 8130 013e
00000120: 8978 0a3e f583 89bd 310e 94bd 75ea a73c
00000130: 447a d03d 11f6 393e 4793 663e 5c5f 6f3e
00000140: 4327 c03d 2805 223e 9bce bb3d cd19 e1bd
00000150: f3c9 cc3d af14 0e3e 3529 8bbc cabe dabc
00000160: 8544 8ebc d683 e13d eb48 973d cd3d dabd
00000170: ce1c 023d 649a 413d 7735 1f3e 66c6 21be
00000180: ce93 393e 01ca 283e 7e66 17be 83dc 353e
00000190: 9fac 793e d203 9dbd 94f3 983d 5a4d 323d
000001a0: fbc0 febd 9421 d73c a192 4b3e c670 7fbd
000001b0: 8e5a a0bc 88ce 5a3e ee7c 25be 90d9 3d3e
000001c0: 77e7 d43d 4d86 18be 61eb 12be 56a5 d13c
000001d0: c5e4 3cbd 0d4b ab3d 4ca6 cabb b5fa 29be
000001e0: e661 1cbe dbef debc feb8 453d cac2 65be
000001f0: 5410 32bd 3d00 22be 288a 523e eede 6c3e
00000200: 2daf 523e d1de 36bd 9e19 303e ca4a 473e
00000210: 59d0 ff3d 3fb7 663e 705f f13d 1f7c 3d3e
00000220: d4dd fa3d 1c33 b23d edbb 67bd 3bd7 c6bd
00000230: f25b 473e ebb7 b53d c013 b3bd 80a0 653e
00000240: 2723 cf3d 79f9 083c 95f0 93bc 6938 5a3e
00000250: 3fd8 163d 77f8 1abc
-0.015433465 0.10417497 -0.038450338 0.052104834 0.021473555 0.2295701 0.17132567 -0.1298103
0.10234284 0.0020392286 0.21979187 0.139908 0.039047766 0.23026536 0.09852748 0.11094927
0.05636304 0.12734914 0.028441105 0.03832625 0.070775986 -0.061777294 0.21929803 -0.15173057
0.04501105 -0.2466024 0.07541395 -0.07327577 -0.15202463 0.053125028 -0.25874534 -0.02931562
-0.00656589 0.13038968 0.115104735 0.117351905 -0.10217645 -0.062067214 -0.057303645 0.20236163
-0.09080769 -0.105664045 0.18890081 0.021900775 -0.077339314 -0.119903326 0.13776171 -0.08781007
0.05775516 0.07632967 0.23268564 0.0703327 -0.08606504 0.159089 0.17754878 0.04915797
0.15024428 0.11820551 -0.025861505 0.011148163 0.07620133 0.030382238 -0.13035895 -0.07485755
0.10183645 0.08930082 -0.15033177 0.14487815 0.11608589 0.08550835 0.17072907 0.12616159
0.13522543 -0.06714622 -0.07229269 0.02049754 0.1017957 0.18160273 0.2251712 0.2337622
0.093824886 0.1582228 0.09170266 -0.10991249 0.09999456 0.13875078 -0.016987422 -0.026702303
-0.017366657 0.11011474 0.07386955 -0.10656319 0.03176575 0.04726638 0.15547739 -0.15798339
0.1812279 0.16483308 -0.14785191 0.177599 0.24382256 -0.07666744 0.07468334 0.0435308
-0.12439152 0.026261128 0.19880153 -0.06236341 -0.01957443 0.21367848 -0.16160938 0.18540025
0.10395711 -0.14894982 -0.14347602 0.025591534 -0.04611661 0.08363924 -0.006184375 -0.16599543
-0.1527172 -0.027213981 0.048272125 -0.22437587 -0.043472603 -0.15820403 0.20560515 0.23131916
0.20574637 -0.044646088 0.17197272 0.19462124 0.12490911 0.2253084 0.117857814 0.1850438
0.122493416 0.087011546 -0.056575704 -0.09709021 0.19468668 0.0887297 -0.087440014 0.22424507
0.10114127 0.00836026 -0.018059054 0.21310581 0.036827322 -0.009458653

conv1.bias f4 [6]
00000000: b503 3c3e 1b43 163e 4d01 f83c 90da b8bd
00000010: 22aa c73d 29a9 733e
0.18360789 0.14674036 0.030274058 -0.090260625 0.09749247 0.23794998

conv2.weight f4 [16, 6, 5, 5]
00000000: c6bb 20bd 34dd aa3d bcd4 ac3d 10e0 723d
00000010: cb27 64bc 724b 7a3d 0be3 fd3c 4f08 583c
00000020: 498d 4f3d 41a4 a43d 1275 e33d 65a4 53bd
00000030: 2881 db3d ffef 8bbc d232 03bd 7d9d a83d
00000040: 79b0 b33d 7b1d 9d3d 84e1 65bd d8c5 a7bd
00000050: c6d3 7ebc 470d d93c ab50 1fbd c960 a0bd
00000060: 52b6 d0bc 7f9f 393d ce85 20bd 433b 6d3b
00000070: e6f7 93bd aba2 4dbd 7144 3e3c 0302 1cbd
00000080: 2c2d 89bd d723 a6bc 1187 df3d 86ba c23d
00000090: 5ec5 bf3d 8e7f adbc 8c8f 99bc 770a 9d3a
000000a0: 3747 f63d 147b 24bd d049 803d 91d8 b63d
000000b0: ad52 5dbc 1b3a 9cbc 574a a43c bd5e 81bc
000000c0: 0262 cebc 0369 643d f9d8 963d e08f 033d
000000d0: 6af1 6d3d 4214 a03d 82cd b73d 5f5e 6f3d
000000e0: a4d4 ebbc 75dd eb3b ad4b 53bd 0f61 ee3c
000000f0: 2804 d63d 6d30 463d bdeb 1abd 6e36 2ebd
00000100: 97ae 853d ad09 453d 531c 44bc 40f7 023b
00000110: 00dc acbd 3e64 9c3c 4eb2 ee3d 3ba2 863b
00000120: 53f5 2ebd 14c7 d8bd 7b93 cf3c c9f6 ca3d
00000130: 73aa 173d 097c f93d 546b f83d 83ab f63a
00000140: ae31 eabc 820a 9f3c d3ce 9a3c 37dd 67bd
00000150: 0d32 fabc 85ed d83d da37 1dbd 488b 74bc
00000160: 35d2 48bc adf5 89bd 29bf cf3c 8269 45bd
00000170: c193 0b3d 12af 57bd 4ef1 cabd d3a6 013e
00000180: 2637 5d3d 14b6 95bc 5cfb 9ebd 8d57 093c
00000190: debf d8bc e968 c23d 9c48 fd3d 0491 e03d
000001a0: 3a1e af3d 5064 1d3d 5755 cb3d b538 fcbc
000001b0: 672a fd3c 6049 2d3d 604c 003e dc3d b33d
000001c0: 3e7e 263d b8b6 f7bc dd65 1f3d fcb8 f83b
000001d0: ce0a 813d b1dd 933b 1322 b23d 40cc 303d
000001e0: c58a 0d3e 5f8b 1d3d bed4 cc3d 83c7 e9bc
000001f0: 8049 8abc 4a69 8f3d 6730 c33d 0ab8 ca3c
00000200: 9742 05bd 78be 5b3d b9b5 d93c e796 f33c
00000210: 0390 a8bc b069 353c e59f b53c 08d9 4f3c
00000220: a6dc 713d 75f4 ce3d 7e9b 78bd 0ae5 a23d
00000230: 1652 7a3d bac8 8d3c b5d6 4a3d 5ee2 8ebd
00000240: 111a 8dbd ac5b 1fbc 8827 c53c 3a74 58bd
00000250: 4992 96bd 0c0e 37bd 70de 813d b86c 3abc
00000260: f6e3 053d fead 0e3c d268 d0bc 90be 8dbc
00000270: e8fa 483d 2655 fd3c ff07 34bd 9dcf bc3d
00000280: 9f5f 9e3d adab 00bd 1acf 46bd 5511 e0bd
00000290: b794 d5bd 4388 003d ef24 15bd f42d 56bd
000002a0: 2d60 a8bd b9a7 87bd 4fb4 c73d 5a51 c3bc
000002b0: cd56 de3c cfbd 61bc 1953 95bc f9cf 893d
000002c0: c07f 173d f487 843d 0c2e f73c f024 db3d
000002d0: 2478 e93c 9356 883d 265a 213d b17d e03d
000002e0: f42f b33d a092 1b3d 08e8 c83d 6209 983d
000002f0: 45ea cf3d efc8 ce3d ccc8 a43d 97fe 713d
00000300: 458c 8c3c f801 c73d 88f8 8e3c 7fdf 373d
00000310: 14f9 29bc c9d5 1bbd 9494 f23d f329 f53c
00000320: c008 b43d 51b7 8ebc f9fe 4cbc 5689 c0ba
00000330: 5097 22bd 9f23 793d c6cd 0dbd 4c0f d33d
00000340: 72c4 93bd 5827 9f3c 0757 87bc 7e76 083d
00000350: cb17 663d c601 b9bd 1df1 dfbd 729f be3d
00000360: 3877 3fbc 9b8d a2bd 9419 91bd b9d8 3dbd
00000370: f083 9c3d def3 e2bc c1f4 a8bc 3e21 ebbd
00000380: 1f7e 8bba d260 cf3b 8c5f 933d c17c 8e3d
00000390: 17e4 353c 0d7d b53d 0ae3 4b3d 671d 343c
000003a0: fcd5 653d 8dd8 233d 70d7 413c 3b5e e93b
000003b0: 8586 9d3d 7ebe bebd 5a93 153d a95c e73c
000003c0: 9cce d53d 27cc 023d 3343 76bd 0d8c d1bd
000003d0: 26ae 2ebd b0eb b23b 9a6b 4738 d695 a8bd
000003e0: a049 8fbd 6ebe 3d3d dd97 d2bb b78d a43b
000003f0: 96f8 fe3d e14d ea3d 120c 3b3d f4a7 113d
-0.039241575 0.083429724 0.08439013 0.059295714 -0.013925503 0.061107107 0.030992052 0.013185575
0.05067185 0.080391414 0.11106314 -0.05167045 0.10717994 -0.017082212 -0.032030888 0.082331635
0.08773894 0.076716386 -0.05612327 -0.081920326 -0.01555342 0.026495589 -0.03889529 -0.0783096
-0.025477562 0.045318123 -0.039190106 0.0036198653 -0.07225017 -0.05020396 0.011612997 -0.038087856
-0.06698069 -0.020280762 0.10914434 0.09508233 0.09363817 -0.021178987 -0.018745206 0.0011981268
0.12025302 -0.04015644 0.062640786 0.089280255 -0.013508481 -0.019070676 0.02005498 -0.015792245
-0.025193218 0.05576421 0.07365603 0.03211963 0.05809156 0.07816364 0.089747444 0.05843961
-0.028787918 0.0071980306 -0.051585842 0.029099016 0.104500115 0.048386026 -0.037822474 -0.042532377
0.06527441 0.04810493 -0.011969644 0.0019983798 -0.08440399 0.019090768 0.11655103 0.004108695
-0.04271443 -0.10584846 0.025338879 0.09910352 0.037027787 0.12181861 0.12129846 0.0018819425
-0.028588142 0.01941419 0.01889745 -0.05660745 -0.030541444 0.10592178 -0.038383342 -0.014925785
-0.0122571485 -0.06736312 0.025359707 -0.048196323 0.034076456 -0.052657194 -0.099093065 0.12661295
0.05400767 -0.018275298 -0.07762787 0.00838269 -0.026458677 0.09492666 0.12367365 0.109651595
0.08550687 0.038425744 0.09928387 -0.030788759 0.030904008 0.042306304 0.12529135 0.08752033
0.040647738 -0.030238494 0.038915504 0.007590411 0.06300889 0.0045125117 0.086979054 0.043163538
0.13822468 0.038462993 0.10001515 -0.028537517 -0.01688075 0.07002504 0.095307164 0.02474596
-0.03253421 0.053648442 0.02657591 0.029735042 -0.020576483 0.011072561 0.02217097 0.012686022
0.059048317 0.1010522 -0.060695164 0.07953842 0.06111344 0.017307628 0.049521167 -0.0697677
-0.068897374 -0.009726446 0.024066702 -0.052845217 -0.073521204 -0.04469113 0.06341255 -0.01137846
0.032688104 0.008708475 -0.025440607 -0.017302781 0.049067408 0.030924391 -0.04395294 0.092192866
0.07733082 -0.031413723 -0.04853735 -0.10940806 -0.10428756 0.03137995 -0.036412176 -0.052289918
-0.08221469 -0.066237874 0.09751188 -0.023842502 0.027141 -0.013778164 -0.0182281 0.06729121
0.036987066 0.064712435 0.030173324 0.10700405 0.02849967 0.06657138 0.039392613 0.10961474
0.08749381 0.03798163 0.098098814 0.07423665 0.10152105 0.10096919 0.080461115 0.059080686
0.01715673 0.097171724 0.017452493 0.044890877 -0.010374326 -0.03804568 0.11844745 0.02992723
0.087907314 -0.017421396 -0.012511962 -0.0014689367 -0.039695084 0.060824987 -0.03462007 0.10305652
-0.07215203 0.01942794 -0.01652099 0.033316128 0.056175034 -0.090335414 -0.109346606 0.093077555
-0.011686139 -0.07937165 -0.07084957 -0.04634926 0.076423526 -0.027704176 -0.02062452 -0.1148095
-0.0010642445 0.0063286806 0.071959585 0.06957389 0.011101744 0.08861742 0.04977707 0.010993338
0.056112275 0.04000144 0.011831149 0.007121829 0.07691673 -0.09313677 0.03651748 0.028242426
0.10439798 0.031932976 -0.06012268 -0.10231791 -0.04264655 0.005460225 4.754551e-05 -0.08231704
-0.06996465 0.046324186 -0.006426795 0.0050217765 0.12449758 0.114406355 0.045665808 0.035560563

conv2.bias f4 [16]
00000000: 0805 943d b1d8 183d bfd2 eebc 27c8 edbc
00000010: b6df b3bc dcfe 58bd 7d6e 583c 0890 95bc
00000020: 0262 823d ce67 b23d a717 783d d396 8f3d
00000030: 8c19 a5bc 524d ac3d 3d7f f33b 364d ae3d
0.07227522 0.037316028 -0.029153226 -0.029026104 -0.02195726 -0.052977428 0.013209936 -0.018257156
0.0636635 0.087112054 0.06056943 0.07011189 -0.020153783 0.08413185 0.0074309395 0.085108206

fc1.weight f4 [120, 400]
00000000: 5a6d 183c 1e6a 55bc bb9c 133d 04f6 c23b
00000010: 1984 97b9 8a9f 093d 795a 743d 2b24 02bb
00000020: b8c1 45bd e97a d43c f20e 0bbc a320 6e3d
00000030: 7a05 c4bc b17a 40bd 1c48 ddbc f332 1bbb
00000040: 35ea cc3b cee4 573b 82cf 50bd 333d f3bb
00000050: 85e7 69bd f86b ae3d 70bd 2bbd 588d efbc
00000060: 2d11 5c3c bdfe a03a cf5b 973c 51a8 503c
00000070: bba0 153d 1d43 563d 316a 9b3c 6be5 893d
00000080: 3983 963d f4fc 32bd 3fac f03c d9de 52bc
00000090: 75d3 4e3c b651 9c3c a29f 2abc aef2 473d
000000a0: eb97 3abb 48b1 18bc eed3 c8bc 2013 413c
000000b0: f3da 6d3d 0e7b cebc 0be8 403c 42d8 293c
000000c0: b707 d0bc 7ddc 4fbd 3ec0 1ebd eead 133c
000000d0: ebcf 823c 65df 583d 963a d23b 89bc c5bc
000000e0: e220 453b e5f2 88bc d2e0 5a3d f37b 8b3d
000000f0: 2114 17bc d74b 55bd af9c 953c 372b 41bb
00000100: 5049 423c 4aee 4dbd 72e1 6abd 37c7 9d3b
00000110: cf43 243d 4ea6 9abc 3be2 babc 1db7 f93c
00000120: 6be3 b3bc 789f 2e3d dff4 9bbd ab98 4c3d
00000130: 6867 483b b4bf 0dbd e24e aa3c c338 01bd
00000140: c76b 1f3d ca05 45bc f0fb 26bd df45 7b3d
00000150: 8b7b 89bd 96bc 823b 54b2 d5bc 7652 d53c
00000160: bbcc 533c 8e36 97bd cb58 2f3a 5423 6cbd
00000170: e1f4 5bbd c877 c23c 38a6 8fbc 05ba bd3c
00000180: 13df 52bd a4f5 1abd fa2d e13b d006 6bbc
00000190: 9f94 183d c490 f93b 9545 5d3c 4be4 2fbd
000001a0: 256d 183d fa8a b4bc 4797 f13c 20c4 b23c
000001b0: 98cb 6fbd 82a2 f73c d807 f3bc ae52 3f3c
000001c0: 99b1 47bc 089b 3e3c 033d ccbc 62dc 8dbd
000001d0: 4473 ce3c 6179 a4bb eacd 38bc d99e 783c
000001e0: c982 fe3c c531 2cbc 68a6 28bd d659 05bc
000001f0: 7d61 f5ba b07e 083d 63f1 5fbd bc30 30bd
00000200: 896a 5d3b 0447 babc 5af5 fbbb e271 d0bc
00000210: 1bf8 ad3c ca92 663d 77df 1b3c fb24 81bd
00000220: 2a42 3abd 586b d93c d8df 5b3d 9f25 05bd
00000230: 18c9 153d 2818 08bd ba86 243d 10f3 babc
00000240: cbd6 14bd 2469 423c 73f7 3abd ec64 96bd
00000250: e769 71bd da12 0a3d 4be9 7c3d 8327 893d
00000260: d271 12bd cc0b 133c db5d d9bc dc84 653d
00000270: dd27 aebc 3bc0 29bd dd17 323d 5f9e 9f3a
00000280: 3c1b 673d b88e 023b 1c98 1d3d faf9 e8bc
00000290: 2736 703c 0904 253d 2e1c c73c e750 1e3d
000002a0: 547a ab3c a1d2 d8ba 1940 adbc 3b04 7ebb
000002b0: fe7a 15bd 1845 6a3d baae 3dbc 12ee 2a3d
000002c0: b1c9 503d 9078 00bd fd44 203d d764 293b
000002d0: fc80 5f3d ee3e 513d 4628 e1bc 5070 08bd
000002e0: 837f e1bc 283e 06bc 6b91 5f3d bebc afbc
000002f0: 137f 08bd 6497 013c d9ed f8bc 97c3 a53c
00000300: 0d87 7f3a fbbb 33bd 42b1 f53b fd16 4a3d
00000310: d888 8ebc cf0f 84bb 742b a2bc fb6f 703c
00000320: 5313 be3c 3545 27bd 7aaa 09bd ec8b 99bd
00000330: 5dde 97bd 7d98 d53c e6db 553c c2ed 6a3d
00000340: fb73 013d cc8c ffbc 0c26 113c f228 313b
00000350: 20d2 b9bc 288b bb3d 90dd b13c 5873 38bd
00000360: 89cc 3cbd 967e 453c cadf a23d 9a79 233d
00000370: 2795 783b f973 ec3c b403 653c dfcf 303d
00000380: b824 7cbc f9e3 ae3c cadb 8b3b 64f2 45ba
00000390: 48cb 1d3d 34ad 863d c005 a3bb f5fd 153d
000003a0: b62c 04bd 2a6c 48bd 65ce 17bd 33ec e33a
000003b0: 8b47 623d b4fe 22bd 7ba7 ff3c 00f4 0a3d
000003c0: c554 f13c 0774 20bb 798e 36bb 5377 d1bc
000003d0: 519f 8dbc 52ff 4e3c 356f 0d3c 5472 13bd
000003e0: 36da 01bd b532 9e3b 8efe 863d e920 913d
000003f0: 3c9d 2f3d b531 59bb d387 343d b093 abbb
0.009303415 -0.013025789 0.03603814 0.0059497375 -0.00028899385 0.033599414 0.059656594 -0.0019857984
-0.048280448 0.025937514 -0.00848745 0.058136594 -0.023928393 -0.046992008 -0.027011923 -0.002368149
0.0062535056 0.0032942775 -0.050979145 -0.007423067 -0.05710556 0.08516687 -0.04192871 -0.029242203
0.013431829 0.0012282949 0.018476395 0.012735442 0.036530238 0.052310098 0.018971534 0.06733211
0.073492475 -0.043698266 0.029379008 -0.012870514 0.0126236575 0.019081932 -0.010414036 0.04881542
-0.0028471898 -0.009319611 -0.024515118 0.011784345 0.058070134 -0.025205161 0.011774073 0.010366501
-0.025394304 -0.050747383 -0.038757555 0.009013636 0.015968284 0.05294742 0.0064156754 -0.024137752
0.0030079414 -0.016717384 0.05343706 0.06810751 -0.009221108 -0.05207428 0.01826319 -0.002947522
0.011858299 -0.05027608 -0.057343908 0.004815008 0.04010373 -0.018878128 -0.022812953 0.030482823
-0.021959027 0.04263255 -0.07615065 0.049950283 0.0030579213 -0.03460665 0.020789567 -0.031548273
0.038921144 -0.012025306 -0.04076761 0.06134593 -0.06713017 0.0039897664 -0.02608601 0.026040297
0.0129272295 -0.07383452 0.00066889514 -0.05765088 -0.05370033 0.023738757 -0.017535314 0.02315999
-0.05148227 -0.037831917 0.006871936 -0.014344886 0.03725111 0.0076161344 0.013505359 -0.042942327
0.037213463 -0.022038925 0.02949108 0.021822035 -0.05854377 0.030228857 -0.029666826 0.011677427
-0.012188339 0.011633642 -0.024931436 -0.069268 0.025201447 -0.0050193523 -0.0112795625 0.015174591
0.031068223 -0.010509913 -0.041174322 -0.008139094 -0.001872107 0.033323944 -0.054673564 -0.043015227
0.0033785424 -0.022738941 -0.0076891603 -0.025444929 0.02123647 0.056292333 0.009513727 -0.063058816
-0.045473255 0.026540443 0.05368027 -0.03250658 0.03656873 -0.033226162 0.040167548 -0.02282098
-0.036337655 0.011865888 -0.045646142 -0.07343468 -0.058938887 0.033709385 0.061745923 0.066969894
-0.03575308 0.008974981 -0.026534012 0.056034908 -0.021259243 -0.04144309 0.04347979 0.0012177936
0.056422457 0.0019921493 0.03847514 -0.02843951 0.014661348 0.04028705 0.02430543 0.038651373
0.020932354 -0.0016542264 -0.021148728 -0.0038759846 -0.036494248 0.0571948 -0.011577303 0.041730948
0.050973598 -0.031364977 0.039128292 0.0025847459 0.05456637 0.051085405 -0.027485024 -0.033310235
-0.027526623 -0.00819353 0.05458204 -0.021452304 -0.033324312 0.0079096295 -0.030386852 0.020234866
0.0009747602 -0.043880444 0.0074979374 0.04933833 -0.017399237 -0.004030205 -0.01979611 0.014675136
0.023202574 -0.040837485 -0.033609845 -0.07497391 -0.07415459 0.026073689 0.013052916 0.05735565
0.03160475 -0.031195067 0.008859169 0.0027032462 -0.022683203 0.09157401 0.021712095 -0.045031875
-0.046093497 0.012054106 0.079528406 0.03991089 0.0037930699 0.028863894 0.013977934 0.04316699
-0.015389614 0.02134894 0.0042681443 -0.00075510726 0.038523942 0.065760046 -0.0049750507 0.036619145
-0.032269202 -0.04893128 -0.037062068 0.0017389118 0.05524401 -0.039793685 0.03120779 0.033924103
0.029459367 -0.002448322 -0.0027855916 -0.025569594 -0.017287882 0.012634115 0.008632471 -0.035997704
-0.031702243 0.004827822 0.06591521 0.07086355 0.04287456 -0.00331412 0.044074845 -0.0052361116

fc1.bias f4 [120]
00000000: 23c1 743c 5af2 8dbc acb4 8b3d c07f 50bd
00000010: 4796 b6bc 1aa4 babb e9f4 afbc 288e 39bc
00000020: cef8 ba3c bddc 26bd 58b6 e13b 7c72 0f3c
00000030: d4e3 20bd a2f8 6c3b 2224 07b9 058c dd3c
00000040: 2021 8c3c fd87 e9bc 6ad2 7c3d bba7 c0bc
00000050: 8dc3 20bc 06f5 7ebc df91 0b3d 9556 d03c
00000060: fd29 223c 3917 873c 5e6a 2d3d 2265 0d3d
00000070: 1368 01bb 96e9 12bd f50c ccbc acb8 173a
00000080: 7c2d 6e3d 0fc0 d53c 02eb 3a3d 3ecc eb3c
00000090: 3610 9e3b b7fa 85bc 0df2 13bd 4a0a 3c3b
000000a0: dbab 193d c64f 0cbd ce71 6b3d 29f9 3b3d
000000b0: 1c44 99bc e269 463d eae3 933c fa49 eb3c
000000c0: 2e66 95bc 40a7 e53c 2136 21bd 4f08 29bd
000000d0: f5ab 053d 7f9d 02bd 7be5 9b3c 09ad 0abc
000000e0: 8763 303d aab5 8c3c d36c 7d3d b76d 5fbd
000000f0: b1e6 673d 9575 3e3c 014f 083d 5e6a 1a3d
00000100: eb8b e53c be22 29bc 94d8 113d ba72 d0bc
00000110: e9ca 963b 85b0 8bbc b863 923d 6806 b7bc
00000120: 3c36 243d bbb1 16bc 3a05 6a3d 3238 bbbc
00000130: 8e26 843d 1099 79bb 7fbe e1bc 75b7 863d
00000140: f0fd 80bb ed30 713d 9b19 c539 3424 753d
00000150: 7bab a9bc 5007 33bd 6229 e73c 8026 5c3d
00000160: ef9d eebc ec4d 923c 4812 223d da02 90bb
00000170: f63a ccbc 28de 813d 3699 3bbd 5d0c 3a3c
00000180: da3c 323d 00a5 013d 2e67 703d 6e30 813c
00000190: 2f84 2f3d bf96 33bd 21c7 183d cc15 08bd
000001a0: 4849 2bbd c201 073c 3393 c03c c9f8 b2bc
000001b0: e8c3 4c3d f0ec 9cbc a9d7 e13c a100 723d
000001c0: 4eb8 d5bc f1fe 013d cc99 303d 7875 84bc
000001d0: 018f 643d 56a5 31bd 0e21 07ba 1123 ebbb
0.0149386255 -0.017327476 0.0682157 -0.050903082 -0.022288455 -0.005695832 -0.021479087 -0.011325397
0.022823717 -0.040737856 0.006888192 0.008755323 -0.039279774 0.003615894 -0.00012888064 0.027044306
0.017105639 -0.028507227 0.061724104 -0.02351748 -0.009812248 -0.015561348 0.03407466 0.02543191
0.009897706 0.016490566 0.042337768 0.034520276 -0.001974587 -0.035867296 -0.024908522 0.0005787711
0.058148846 0.026092557 0.045634277 0.028783914 0.00482371 -0.016354902 -0.03611951 0.0028692656
0.03751741 -0.034255765 0.05748158 0.045891915 -0.018709235 0.04844082 0.018053014 0.028721798
-0.0182372 0.028033853 -0.039358262 -0.04126769 0.032634694 -0.03188848 0.019030323 -0.008464106
0.043063667 0.017176468 0.06187136 -0.05454799 0.05661649 0.011624713 0.03327847 0.037699096
0.02802082 -0.010323225 0.035606936 -0.02544533 0.0046018255 -0.017051945 0.07147926 -0.022341922
0.040090784 -0.009197648 0.05713389 -0.022853944 0.06452666 -0.0038085617 -0.027556656 0.065779604
-0.0039365217 0.05888455 0.00037593846 0.05984898 -0.020711651 -0.043708146 0.028217975 0.053747654
-0.029128043 0.017859422 0.039568216 -0.004394871 -0.024930459 0.06341201 -0.04580041 0.011355487
0.043515064 0.031651497 0.05869215 0.015770163 0.04285067 -0.043844935 0.03729928 -0.033223912
-0.041817933 0.008240165 0.02350769 -0.021847146 0.04999152 -0.01915595 0.027568655 0.05908263
-0.02608886 0.03173727 0.043115422 -0.016169295 0.05580044 -0.043370567 -0.0005154767 -0.007175811

fc2.weight f4 [84, 120]
00000000: 0270 3dbd 0694 1cbd 7acc bebc a697 383d
00000010: a4f9 51bd 36b0 373d 0281 973d d9d0 5dbd
00000020: 46e9 933c 8373 533d df8f afbd 5b95 9cbd
00000030: 901b 6c3d 4ba1 7e3d ef6f 523d 958e a2bc
00000040: fd55 04bd 56a8 f23c 011e e93c 635c abbd
00000050: 26ed efbb cca3 7e3d 979a d5bc afd5 993c
00000060: 5371 febc bd25 8d3c b6b4 673d 4bfe 8abc
00000070: 389e 423c b062 c7bc eb36 3b3d 8709 733d
00000080: 48a5 2dbc 0fe5 183d 4d8f 66bd 0049 2b3c
00000090: 7e95 853d aba5 8c3b b8b9 8f3d 5e30 21bd
000000a0: 0475 543d c0a3 763d 7e30 f2b9 46b2 b9bd
000000b0: 9137 8e3d 637e 333c a07b 99bc 9a4a 99bb
000000c0: 581a 53bc 93b1 ce3c 5528 3e3d b797 1dbd
000000d0: 2e5e 9abd 3534 89bd f64e a73d 60d2 833d
000000e0: 195c 40bc fbe0 76bc ff8e b3bd ffb6 9e3c
000000f0: 102d a0bc 2f81 463d 504e 5e3d 23ad 23bd
00000100: bd2c fabc 9105 4abd 4683 bbbd 14dc 393d
00000110: 70a4 45bd 335b b7bd 3285 213c a1a1 6f3d
00000120: 1d03 7e3c 7dad 55bd fae1 8d3d 8782 b2bd
00000130: 198d b63c 1320 46bd 2eac 153d ba23 f23c
00000140: a7e7 0a3d 0631 8d3d b9f0 853d 6e9a 7cbd
00000150: 9765 f0bc 2320 18bd e292 a0bd bc27 79bd
00000160: 729c 81bd 5d0c 873d 91b8 42ba 6a17 90bd
00000170: 9ba5 4f3c f0e1 3bbd 1e75 dfbb d069 55bd
00000180: 50be 12bd be7e 9f3c 7452 963b cccd aabd
00000190: 03ef 103a bc10 ae3d 9b8e a13d 0972 ac3d
000001a0: 2e11 c03d 7c5a 56bd 6448 cbbd 9775 64bd
000001b0: f791 883c afec 9e3d ffb5 7ebd f76a 863d
000001c0: 85e6 bbbd cb6c af3d 9f64 b0bd ef09 303d
000001d0: 21da 2cbc 9bd1 99bd 5656 84bc 5134 db3c
000001e0: e4b2 60bc 2ba5 82bd 68e7 873d 92bd 34bd
000001f0: 0a5d 983d 4c65 9fbc 733e 61bd 4a4b 753d
00000200: df5c 6bbd 75a2 983c d2dd 773c a331 573d
00000210: 035f 76bd 1912 dc3c 131c d53c 916b 6bbd
00000220: 55a0 05bd 2ea3 1fbd 9493 3a3d e7ad 5fbc
00000230: d396 96bd 6841 753d 8967 92bd 7788 a4bd
00000240: 0c42 a6bd c417 3b3d 0472 01bd 4d3c 7fbd
00000250: 0125 6a3d a673 00be 6647 44bd ed57 673d
00000260: e734 753d 8470 883c 9124 c3bb ac85 223d
00000270: 9ffd 7c3d d8ac e13c 5861 6dbd 75f3 4b3d
00000280: 1efa 053e 0c3a 8abd 17b3 c73c a3f7 98bc
00000290: 7c2f 5dbd 7e13 3e3c 778a b8bd 801e cbbc
000002a0: dd79 8a3d e5be 30bd 66b0 913d ed8b bcbc
000002b0: 3ddc c33d 9247 9f3d 83f5 ddbd 6e95 3f3d
000002c0: fea4 a8bd 60d4 a5bd 65d5 323d b85f a7bd
000002d0: cbd6 62bd 9f66 ae3d 4bc6 94bd 8e51 1bbc
000002e0: 725a 1bbd 8365 98bd d039 a83d 4d8f 31bd
000002f0: d813 b5bd 2fb1 83bd 4b88 acbb 0686 29bc
00000300: dff6 6fbd e82d a1bd 4589 1c3a fabc 73bd
00000310: d012 4ebd b0ba 59bc 76bd d9bc 4f2b bfbc
00000320: 4153 d5bd 3e62 cd3d 8673 363d 6874 56bd
00000330: a224 793c 8e34 f03c e155 2e3d 7797 5c3d
00000340: 8138 b7bd 3bc5 103d 6d40 9d3d 89c5 95bc
00000350: 4e22 0bbd f5c9 823d 21a0 36bc 6416 b43c
00000360: 3b3b 933c 7673 15bd cb26 c2bc df2c 703d
00000370: 447b 8f3d 4e19 dd3c fc3f 77bd 0ac7 123d
00000380: 6c9e a83d a37e 8ebc c087 9e3d 014a aa3d
00000390: 87a8 43bd 4b0e 7cbd 575c c13c 3629 c93d
000003a0: 167c efbb 9b26 f13c e0de b73d 98b1 96bd
000003b0: 6215 72bc d57a d2bd a2a3 3abd 89a2 0b3c
000003c0: 2a02 6f3d 6c64 213d d747 28bd 1ef5 90bb
000003d0: 6050 08bd 378f 563d 4578 8b3d 7f9a a33c
000003e0: fbb3 013d 1ce9 08bd 6c7c 22bc 8631 093c
000003f0: dfac 8abd 52ae bd3c d78c 913d 1207 b3bd
-0.046249397 -0.038227104 -0.023290861 0.0450665 -0.051263466 0.044845782 0.07397653 -0.05415425
0.01805557 0.051623832 -0.08572363 -0.07645675 0.057643473 0.06216554 0.05137628 -0.019843379
-0.032308567 0.029621284 0.02845669 -0.08367231 -0.0073219715 0.062167928 -0.02607469 0.01877865
-0.031059897 0.01722991 0.056568824 -0.01696696 0.011878543 -0.02433905 0.04570667 0.059335258
-0.010598488 0.037327822 -0.056289006 0.010454416 0.06522654 0.00429221 0.07017845 -0.039352767
0.051869407 0.060214758 -0.00046193966 -0.09067206 0.06944192 0.010955426 -0.018735707 -0.0046780827
-0.012884699 0.025231158 0.046425182 -0.038474765 -0.075374946 -0.06699411 0.081693575 0.0643661
-0.011740708 -0.015068288 -0.08767509 0.019374369 -0.019552737 0.048463043 0.054273903 -0.039960038
-0.030538911 -0.049321715 -0.09155898 0.0453759 -0.048252523 -0.08952942 0.009858416 0.05850375
0.015503672 -0.052167404 0.06927867 -0.08716302 0.022284077 -0.048370432 0.036541156 0.029558051
0.033912327 0.06894116 0.06540055 -0.061670713 -0.029345317 -0.037140023 -0.07840516 -0.06082891
-0.06328668 0.06594155 -0.0007428015 -0.07035716 0.012673761 -0.045869768 -0.0068193814 -0.052102864
-0.035826027 0.019469615 0.004587466 -0.08340034 0.00055287796 0.084992856 0.07888528 0.08420188
0.09378277 -0.052332386 -0.09925917 -0.055776205 0.016671164 0.077599876 -0.062185284 0.06563371
-0.091748275 0.085656725 -0.08612942 0.042978223 -0.010550053 -0.07510682 -0.01615445 0.026758345
-0.013714526 -0.063791595 0.06635934 -0.0441261 0.07439621 -0.019457482 -0.054991197 0.059886254
-0.057461616 0.018632153 0.01512857 0.05253757 -0.060149204 0.026864098 0.026014363 -0.05747563
-0.032623608 -0.03897398 0.045550898 -0.013652301 -0.07352986 0.05987683 -0.07148654 -0.08033841
-0.08118066 0.04567696 -0.031602874 -0.062313367 0.057164196 -0.12544116 -0.047919653 0.056480337
0.059864905 0.016655214 -0.005955287 0.03967826 0.06176531 0.027548239 -0.057954162 0.049792726
0.13083693 -0.06749353 0.024377389 -0.01867277 -0.054000363 0.011601327 -0.09010785 -0.024794817
0.06761525 -0.0431508 0.071137235 -0.02301594 0.095634915 0.07777323 -0.10837843 0.046773367
-0.08234595 -0.08097148 0.04366054 -0.08172554 -0.055380624 0.08515667 -0.07264384 -0.009479893
-0.037928052 -0.07441237 0.08214152 -0.043349553 -0.088416755 -0.064302795 -0.005265271 -0.010346895
-0.058585044 -0.07870084 0.00059713825 -0.059506394 -0.05031091 -0.013289139 -0.0265796 -0.02333608
-0.1041627 0.10028504 0.044543765 -0.052357107 0.015206488 0.029321935 0.04256237 0.053855386
-0.08946324 0.035344344 0.07678304 -0.018282669 -0.033968262 0.063861765 -0.011146576 0.021983333
0.01797258 -0.036487065 -0.023700139 0.058636542 0.07005933 0.026989605 -0.060363755 0.03583435
0.082333416 -0.01739437 0.07740736 0.083148964 -0.047768142 -0.06153707 0.023603601 0.098223135
-0.0073084934 0.029437354 0.08978057 -0.07358092 -0.014775606 -0.102773346 -0.04556621 0.008522638
0.058351673 0.03940241 -0.041084137 -0.0044237515 -0.033279777 0.052382674 0.06810049 0.01997113
0.031665783 -0.033425435 -0.00991736 0.008373624 -0.06771254 0.023154411 0.07106941 -0.08741583

fc2.bias f4 [84]
00000000: de0c 2abc 3915 333d 0696 a3bd 0676 b63d
00000010: ae15 9bbd e7bf 04bd d4e9 d2bd 0c94 9abb
00000020: 24d1 d0bd 7c09 c63d b24c debc 0305 7fbd
00000030: e12b dfbc e486 7a3c 2e50 4e3c 5578 79bd
00000040: f31d c73d 4743 753d eff4 9bbd 7d10 4dbc
00000050: d447 993c c958 173d 9261 f93c 6c3d 253d
00000060: cba0 503d c34f 383d c6de 80bd 6ade 923d
00000070: 686d 4abd c46c 27bd a571 bc3d 5e30 3abd
00000080: e9ed 153d d9aa 7b3d 3793 563d 35d8 c13c
00000090: b487 cdbd 14ac 34bd 6e6a 28bd a557 903d
000000a0: 511a e73d 962b 3c3d c62b a9bd 9459 803d
000000b0: 603f 88bc b136 1bbc 0217 293d 5ca3 cc3d
000000c0: 7d2d acbd 1434 22bd 09d3 35bd faac 0d3d
000000d0: b991 d4bc df96 aabd 08eb 31bd 0f70 9abd
000000e0: 5461 e0bc cc14 72bd e4ec ddbb 99c9 e63d
000000f0: 75de 823b 91bd 563d 433b 543d c8de 9abd
00000100: 9110 c73c f307 3fbd afd5 dc3d 1ab8 e2bc
00000110: 9074 893d 64b7 8e3d ff28 e93b 314c 173d
00000120: 907e 9a3c fea0 c0ba 0cd1 973d 39f3 903d
00000130: 21c9 67bd 8993 383d 17f9 893d c088 55bc
00000140: 5d80 8fbc 6743 03bd 3464 adbd c861 0abc
-0.010379044 0.04372141 -0.07987599 0.0890923 -0.075724944 -0.032409575 -0.102985054 -0.0047173556
-0.101961404 0.09669778 -0.02713618 -0.06226064 -0.027242603 0.0152909495 0.0125923585 -0.060905773
0.09722509 0.059878614 -0.07615077 -0.012516138 0.018711008 0.036949906 0.030442033 0.04034178
0.050934594 0.04499794 -0.06292491 0.07171328 -0.049420744 -0.04087521 0.092013635 -0.045456283
0.036603842 0.06144223 0.05238649 0.023662666 -0.10035649 -0.04410942 -0.041117124 0.07047967
0.11284316 0.045940004 -0.08260302 0.06267086 -0.016631782 -0.009473489 0.041281708 0.09992096
-0.08407114 -0.039600447 -0.044390712 0.03458879 -0.025948392 -0.083295576 -0.043437034 -0.07540905
-0.02739016 -0.059101865 -0.0067726243 0.112689205 0.003993804 0.05242688 0.05181433 -0.075620234
0.024299892 -0.04663844 0.107829444 -0.027675677 0.06711686 0.06968573 0.007115483 0.036937896
0.018859178 -0.0014696417 0.074129194 0.07077641 -0.056588296 0.045062575 0.06736963 -0.013033092
-0.017517263 -0.0320467 -0.08466378 -0.008446164

fc3.weight f4 [10, 84]
00000000: 31b1 8bbd f1b3 bbbd ea27 4f3d 5151 d8bd
00000010: 4f6a 01be 23a4 cb3c ba49 1c3d a147 053d
00000020: 5393 02be 2c6c e1bd 24e6 4abc 24c8 14be
00000030: 4cbc aa3c 6b52 e7bd b920 d53d 0d19 803d
00000040: 7075 2abb 8c7b ddbd 0c7c 84bd e3c7 813d
00000050: 1c70 b1bd a390 743d b326 5ebd a4d9 2f3c
00000060: 857e 90bd 7eea 2d3d e9b9 563d cc5a 2bbd
00000070: 9a07 0d3d 48bc 9ebd b6c6 f8bc 34c3 963d
00000080: c14a f53d ea9c ae3c c6a3 013d 83e9 acbd
00000090: 6485 ac3d 186c 0fbd 0f95 c2bd 20f1 a73c
000000a0: aab6 f13b d334 22bd 1093 9abd a220 2a3d
000000b0: 3f2a da3d 255d 12bd 9f37 e3bd 3e00 523b
000000c0: 2ab8 d6bd ad25 01bd dea7 a83d a4b1 0fbe
000000d0: 9220 4ebb 7884 72bd 4914 863d a098 8cbd
000000e0: 4ac5 dcbc 1a8a 53bd 3b45 b43d 06ce ff3d
000000f0: 6cf6 7e3d 499e 6dbd d7e3 96bd 241c a9bc
00000100: 6472 dc3d dd4d 9a3d 3d44 abbd eb00 19bd
00000110: 6f08 13bd 7c5f a4bc 835e dc37 8fe3 a2bc
00000120: 9d83 e3bd 4fc3 8abc 41ae b93b cbed 073d
00000130: f6a5 523d e2b1 e2bd 4bbe 13bd cfd4 013e
00000140: 6c6a 5c3c 57d7 eabc bf83 b9bd d36c f03d
00000150: beb7 c13c 0306 6c3d 4c87 d13c cc91 863d
00000160: 2d7c 05bd 6e94 12be 6d87 b5bd 260e 0abe
00000170: 46ef 6b3c a021 c03d cef8 46bb d1da 3fbd
00000180: 9a3e 33bd 676f 9d3d 2b02 39bd 5da4 32bc
00000190: 91cf 0cbe 2648 03bd cb0b 80bd 3c1e 7abd
000001a0: 05d3 8a3d 2f61 eb3d d570 8c3d ccf6 8bbd
000001b0: cff1 d1bd d9e1 203d 2167 0abe 8fdc 57bc
000001c0: fdf8 b53d 0dd6 8f3d f515 debd b45e dabd
000001d0: 7ba4 c2bc 0464 953d 97c5 8a3c 7094 b93c
000001e0: e529 ca3d 4766 67bd f803 adbd 5052 8c3c
000001f0: 31c4 1cbd b7c7 62bd 47d0 d43c 0b29 d53d
00000200: b963 55bc 1246 44bb 50b7 623d 98c6 f63d
00000210: 7a65 903d f3bc d13d 856a 773d c52c 5c3a
00000220: 18ac 0abe b4d6 c6bc fc14 8c3d 2de6 dabd
00000230: 999f 94bb 3e60 93bd b28e b1bd 7f3e 0f3d
00000240: 6d8f fe3d a7ba a13d 4cab 9f3d 088c 8cbd
00000250: 0d0d 0dbe cf38 12be c789 013e 9f3e ab3d
00000260: 8563 d4bc 230f c4bc 394e 25be bc3d ac3d
00000270: 40b6 923d b2f6 d03d fb0e 163d f89f a3bc
00000280: 2398 863d 36ef c8bd c746 733d 1823 83bc
00000290: c547 62bc c7d4 36bd 1799 2b3c b1a6 4a3d
000002a0: a680 503d d59c d4bc dd4e d0bd 18d4 cdbd
000002b0: 3004 953b b758 f13a 4863 ab3d 62ec d43d
000002c0: a7d6 513b 71fe 9ebd c8e3 c8bd e7ba 5f3d
000002d0: 6f9d 26be 1913 433d 9926 433d 35cb 133a
000002e0: 66ef 253d 9e54 ffbd a982 213d 245e 0f3d
000002f0: 33e7 82bd d4e5 acbd 922d d03c c508 c43d
00000300: 0162 023e fe58 bb3c f7ff c0bb a6c6 fabd
00000310: e661 c9bd 3934 d7bd f17d 723b 6a74 44bd
00000320: 2dd8 24bd 78ce a2bc 03cb abbd 100a 9ebd
00000330: a9b4 3cbd 2f10 d6bd a44b b3ba 631f 9f3d
00000340: b053 92bc 11cb 47bd fdc7 d6bc 44d8 7f3d
00000350: f5a6 043e 2941 493c da7a a63c 4978 35bc
00000360: 57f8 84bc 7c0e 5a3c 8d48 0bbd 290c 673d
00000370: 0d28 eabd 0b0a da3c 9e2d 113d b20b acbb
00000380: 87a5 643d ffa7 05bd f8ee c3bb 709c 95bd
00000390: 9612 bd3d 2e44 c7bd 88d6 41bd a86c df3c
000003a0: 2eba 34bd a2b7 79bd ed47 04bd 723a 4abd
000003b0: e06c 9c3d 766f ee3c b589 c2bc b3c8 fc3b
000003c0: 22ae b93d 0162 b7bd 9fb1 bc3c 9e6d 073e
000003d0: 4f95 27be 6af2 cc3d 22d2 40bd 3418 e73d
000003e0: 0b41 a33d 96af 46bd eb2e 14bd b9d7 873d
000003f0: 0715 cabd 83c2 4fbd 761c 2b3d 7e74 c23d
-0.06820906 -0.091651805 0.050575174 -0.10562385 -0.1263821 0.02485854 0.03815625 0.032539014
-0.12751512 -0.1100696 -0.012383971 -0.14529473 0.02084174 -0.11295017 0.10406632 0.06254778
-0.002600994 -0.1081458 -0.064689726 0.063369535 -0.08663961 0.05970825 -0.054236125 0.010733042
-0.07055382 0.042459957 0.05242339 -0.041834638 0.034431078 -0.077507555 -0.03036819 0.07361451
0.11977149 0.021315057 0.031650327 -0.08442976 0.0842388 -0.035015196 -0.09501087 0.02050072
0.0073765116 -0.03960116 -0.07547581 0.041535027 0.10652589 -0.03573336 -0.11094593 0.0032043601
-0.10484345 -0.03153007 0.08235143 -0.14032608 -0.003145252 -0.059208363 0.06546838 -0.068650484
-0.026949544 -0.051645376 0.08802267 0.12490468 0.062246725 -0.05801228 -0.07367676 -0.020643301
0.10764006 0.075343825 -0.08362625 -0.03735439 -0.035896715 -0.020065062 2.6270054e-05 -0.019883899
-0.111090876 -0.016938834 0.0056665246 0.03318576 0.051427804 -0.11069085 -0.03607015 0.12678836
0.013453107 -0.028667135 -0.09058332 0.117395066 0.023647185 0.05762292 0.02557721 0.06570777
-0.032589126 -0.14314434 -0.08863721 -0.1348196 0.014400309 0.093814135 -0.0030360701 -0.04683954
-0.043760873 0.07687264 -0.045168083 -0.010903445 -0.13751055 -0.032051228 -0.06252249 -0.06106399
0.0677853 0.11493146 0.068574585 -0.06834182 -0.102511995 0.039277885 -0.13515903 -0.013175144
0.08885381 0.07023249 -0.10844032 -0.106625944 -0.023760071 0.07294467 0.016939921 0.022653788
0.09871272 -0.056494024 -0.084480226 0.017129093 -0.03827304 -0.055366244 0.02597822 0.10408219
-0.013024264 -0.0029948992 0.0553506 0.120495975 0.07050605 0.10241117 0.06040432 0.0008399005
-0.13542211 -0.0242723 0.0683994 -0.10688434 -0.004535627 -0.07196091 -0.08669795 0.03497171
0.124297 0.07896929 0.07796344 -0.06862646 -0.1377451 -0.14279483 0.12650214 0.083615534
-0.02592636 -0.023932999 -0.16143121 0.084102124 0.07163668 0.102033034 0.03663538 -0.01997374
0.065719865 -0.09811251 0.05939367 -0.016007945 -0.0138110565 -0.044636514 0.010473511 0.049475376
0.05090394 -0.02595369 -0.10171292 -0.10050219 0.0045476183 0.001841328 0.08368546 0.10396649
0.0032018812 -0.077633746 -0.09809071 0.054621603 -0.16270994 0.047625635 0.04764423 0.0005637885
0.04051151 -0.12467311 0.039431248 0.03500189 -0.06391754 -0.08442274 0.025412355 0.09571985
0.12732698 0.022869583 -0.0058898884 -0.122449204 -0.09833126 -0.105080076 0.0037001336 -0.047962584
-0.040245224 -0.019873843 -0.08388331 -0.07716763 -0.04607073 -0.104523055 -0.0013679159 0.077696584
-0.017862171 -0.048777644 -0.026218409 0.062462106 0.12954314 0.012283602 0.020322252 -0.0110760415
-0.016231699 0.013309117 -0.034004737 0.05640808 -0.1143342 0.026616117 0.035443895 -0.0052504176
0.05582192 -0.032630917 -0.005979415 -0.07305229 0.092320606 -0.09729801 -0.047323734 0.027273491
-0.044122867 -0.06096614 -0.032295156 -0.049372144 0.07637954 0.029105883 -0.023747304 0.007714355
0.09066416 -0.0895424 0.023033915 0.1322541 -0.1636555 0.10007174 -0.0470754 0.11283913
0.0797139 -0.048507296 -0.036177557 0.06632943 -0.09867292 -0.05072261 0.04177519 0.09494875

fc3.bias f4 [10]
00000000: 44bb 4fbd 30eb d8bd 8700 bdbc 5758 f03c
00000010: e091 60bc c176 c03c 5e77 96bd 7ee1 7abd
00000020: 7139 75bd 657a ab3c
-0.0507157 -0.105917335 -0.02307154 0.029338999 -0.013706654 0.023494126 -0.07346986 -0.061250202
-0.059869234 0.020932386
