models/lenet5_fashion_mnist_0.9126.pth (torch, 250768 bytes, 10 tensors)

conv1.weight f4 [6, 1, 5, 5]
00000000: fc96 5b3d 3f85 3bbe 5fab 33bd 9ef3 4fbe
00000010: 281d cf3d 29d0 c5bc 3a7f 17bd c922 66be
00000020: f1a0 c1bc d1b6 c43d 8383 8a3c 9c36 8b3d
00000030: 2347 4c3e 836c a03e 67aa b03e 7245 ba3d
00000040: 503e bd3d 70e6 a93e 7351 c13e f62b 8dbd
00000050: 90c7 94bb f298 683b 51b5 bdbd 1916 08bf
00000060: 077f 12bf 5845 21bd ca65 493e defb 833e
00000070: bb8c afbd a865 cbbe b076 11be 0892 5d3e
00000080: b477 f93e c550 133e bf63 b3be 5f59 9d3e
00000090: 5a00 2fbe 4317 a43e ac07 d93d 32ac 103d
000000a0: ac18 84bd 9af7 d9be ef5f 973e 3c36 26bd
000000b0: 150b 6cbd e6a5 cbbd 0456 edbe 3907 a83e
000000c0: cfbf f2bd 9e5d b2bd b8a9 a33c f765 00bd
000000d0: 479f eb3c 8d6d 3c3e d9ce 00be 9a8c 4cbe
000000e0: 7bff fc3c 13ea 733d 4ab9 823e 10b2 8dbe
000000f0: a7be a5bd 8425 eb3d 0f4d 54be 269a 0a3f
00000100: 090a c5be c982 4cbe ba00 983d 2bf1 21be
00000110: 8eb5 0c3f 1198 10be ab22 bbbe 8d7e 5a3e
00000120: 5441 993c acc7 193e 55ae 3ebc f2b3 8ebe
00000130: f961 ae3c 7289 783e f854 3abe ae45 aa3d
00000140: 3c72 26be 62d9 623e a993 a53e b070 57bd
00000150: 7332 c7bd 63b8 5a3d 13ab cb3e afe4 8e3e
00000160: b410 54bd 4181 283c e171 853e 1266 d53e
00000170: 74a2 abbd 45c5 3c3d c749 ad3d 030b 30be
00000180: 32f5 4b3e d862 703d 46f5 50be 3ef1 8dbd
00000190: b4df 09bd 095d fa3c 29d2 d2bd c23d d0be
000001a0: 9bc3 28bf c272 173e 50e5 8f3d 8aee ffbb
000001b0: 6d8e aebe bc7b 23bf 6492 d8bd dbc5 ff3e
000001c0: 720c b43e 3258 ad3e 3aa7 0b3e 8897 093e
000001d0: 9fce 503e 5a5a 133d 9b0b 153e f0bd bebd
000001e0: 4819 92bd 78f4 9a3d d6e9 233e 2ce4 233d
000001f0: 9278 583c 79f9 143e 5d4f 8abe 4def a73d
00000200: 8f27 95bc 9008 383e 778a e9bd df32 1ebf
00000210: cb93 cb3d a646 dd3d 1fe8 633e d091 4bbe
00000220: ba40 35bf d459 5e3d 97e2 6f3e f7b3 f13c
00000230: 009f 7c3b be8c cbbe 6882 8a3e 3cbf 393e
00000240: cde0 353e 6358 8e3e 30b7 86be f666 c4bc
00000250: eda9 a03e 444a 80bc
0.053610787 -0.18312548 -0.043864604 -0.20307776 0.10112983 -0.02414711 -0.036986567 -0.22474207
-0.023636313 0.09605182 0.016908413 0.06797525 0.19949012 0.31332788 0.34505007 0.09095277
0.09240401 0.33183622 0.37757453 -0.068931505 -0.0045403913 0.0035491553 -0.09263099 -0.5315872
-0.5722508 -0.039372772 0.19667736 0.25778097 -0.08571764 -0.39725995 -0.14205432 0.21637738
0.4872414 0.1438628 -0.35037038 0.30732247 -0.17089978 0.32048997 0.105971664 0.03532047
-0.06450018 -0.42571718 0.2956538 -0.040579066 -0.057627756 -0.09943752 -0.46354687 0.3281801
-0.11852991 -0.08709262 0.01997839 -0.03134724 0.028762473 0.18401165 -0.12578906 -0.1997551
0.030883541 0.059549402 0.2553199 -0.27674913 -0.08093005 0.11481765 -0.2073252 0.5414146
-0.3848422 -0.19971766 0.074220136 -0.15814655 0.5496453 -0.14120509 -0.36549887 0.21337338
0.018707909 0.15017575 -0.011638244 -0.27871662 0.021286951 0.24271181 -0.18196476 0.083140716
-0.16254514 0.22153237 0.32339218 -0.0525977 -0.09726419 0.0533985 0.39778957 0.27908847
-0.05177374 0.010284723 0.26063445 0.41679436 -0.08380595 0.04608657 0.084613375 -0.171917
0.19917753 0.058688015 -0.20406064 -0.06930779 -0.033660606 0.03056194 -0.10293991 -0.40672117
-0.6592347 0.1478987 0.0702616 -0.0078104185 -0.34093037 -0.6386068 -0.10574797 0.4995564
0.35165745 0.3385635 0.1363801 0.13436711 0.2039132 0.035974838 0.14555208 -0.093135715
-0.07133728 0.0756616 0.1600717 0.040012524 0.01321234 0.14548291 -0.27013674 0.0819994
-0.01820734 0.17972016 -0.11403363 -0.61796373 0.09940299 0.10804491 0.22256516 -0.19879842
-0.7080189 0.054284886 0.23426281 0.02950476 0.003854692 -0.39755815 0.27052617 0.18139356
0.17761536 0.2780181 -0.26311636 -0.023974877 0.31379643 -0.015660413

conv1.bias f4 [6]
00000000: 3075 95bb 7a56 90ba 7f51 2ebc 68d2 f3bc
00000010: e979 bd3d 8c35 403e
-0.004561089 -0.00110121 -0.010639547 -0.029763415 0.09251768 0.18770427

conv2.weight f4 [16, 6, 5, 5]
00000000: 8316 10be d509 abbd 7c38 373c 73d3 233e
00000010: e0ca 913d e113 4bbd 6ba9 f0bc 1bcd 83be
00000020: a904 f93c 0419 f43c 46d3 53be ffa7 7abc
00000030: fc8c a73e a00f ac3c 2fcc eebc 0470 a2be
00000040: b1d2 8439 12a4 e2bc bcd1 ffbc 21a9 843c
00000050: 5d42 eabc 8482 5e3e d63f 053e 7a07 353e
00000060: 7617 853e 5a56 3f3e 841b 83bd b07b 453e
00000070: b1e1 073e f0f2 83be 8080 133e 52e2 34be
00000080: 216d c0bd 29aa bb3d ac34 663d 3981 853e
00000090: 3937 c5bc e7de 37be ee88 e8bd 4c47 9e3d
000000a0: 0bfe 873e 54c0 9cba 893f 42be 4bed 19be
000000b0: 3d75 a53c 4884 8d3d f6ca 0c3e 98c3 ac3c
000000c0: c2d4 abbd 7409 903e 51c7 263e 4711 0cbd
000000d0: 77ca 1c3e b107 4dbe f9e2 00be 99c6 d33d
000000e0: dcc5 54be 7b60 29be 9643 1d3d 81aa 76bc
000000f0: b812 f33d f7a5 23be f38b 9cbe 0eef 373e
00000100: 5a88 b6bd 4c20 183e 1fa8 a73d 2308 8cbc
00000110: ead3 833e 4384 75be a718 8d3d 6058 023c
00000120: 8251 2bbe 90f3 153e 8673 1a3e f36f d43d
00000130: 56d7 043c be23 f5bd e04d ccbd 74c5 5abe
00000140: 7bfe c13c 001b cabb 5242 2bbe 3528 e2bd
00000150: 3e8b b1bd a067 1cbe 0120 af3d 6e5c fcbd
00000160: af31 a9bd 1c18 6ebb 37f9 95be 88c8 093e
00000170: 60af 4fbd 58b0 28bc 1f47 bb3d 43f9 8dbe
00000180: 8fee d33d 6c81 f13d c061 0d3e c31b 203e
00000190: 8bfd d6bc a476 15be 309e d53e 0780 263f
000001a0: f9e5 d83e 88b1 133e 006a f4bd e15e b7bc
000001b0: 15b7 553c 73da e93d 35c1 8f3e 743a a73d
000001c0: 48b6 dfbd 5517 9fbd 6281 3fbc cf4c bdbd
000001d0: 15b3 7dbd bf08 a1bd b1a8 e8bd 24b9 95bc
000001e0: 07c9 49be 20bd 1dbd b08c c3bd 105a 21be
000001f0: 19e0 acbd 3e28 a53c 9402 d2bc 88ce 793d
00000200: 4892 493d cb94 3d3e d4df a93d 2cfc 26bd
00000210: 7c77 ea3c 480c 54bd 5d8f 7a3d 41ad 803d
00000220: 6b59 00be 7f4f a63d e50d 30bd 43ca 0dbe
00000230: a3fa 2c3e 9c68 403c fbcf c6bd 5fcb e13d
00000240: 0208 20bd 50e8 c83d 2eef 5bbb c647 babe
00000250: 3f5c 55be dae5 adbe c384 b83c b6b3 553e
00000260: 974d 51be 6e22 a0bd 00ad ce3d 0ab1 1f3e
00000270: b0c9 c6bd 6ecc 64be 47fa a4bd e8af 903d
00000280: 0bb9 47bd aef7 73bd b28d 133e 1304 00be
00000290: 0b85 8bbd 7d9e febc 0f97 f6bc ef20 383e
000002a0: 6df5 b93d 21f8 dcbd 91c5 0e3e 2065 9e3e
000002b0: 3b94 dc3d 1b20 41bc 3236 8fbc 004c 96be
000002c0: 4751 a53d b783 6cbc 0f0d 4fbe cb9e c1be
000002d0: dff5 d5bc 709c 23bc 5c4c f13d 1611 b03d
000002e0: 1eb1 323d 35b0 673d 9721 113e 0859 4dbd
000002f0: b822 95bc 95e3 083e 1e32 39bd e620 7abd
00000300: 2773 ca3d 0c65 d73c 632c d53d d319 7fbe
00000310: ea4d 81bd d7c0 d53d b657 45bd 817c 9a3d
00000320: 4f95 5b3e 7f2a adbd fb87 263e 9e59 4fbe
00000330: 6447 b5bd e0e6 903e 8985 783e a676 33bd
00000340: e87d b0be 8735 b83c 0039 bf3c 642b ce3d
00000350: ed63 3c3e 262b 893c 1f28 cc3d d4dd 98bd
00000360: 635a 843d e796 30bd 12be 0d3e 6dc4 773d
00000370: 848f 893a 47ff b23d 872a 833c c4be 143e
00000380: 9c92 30be fc1f 193d 1153 f53d d7a8 16bd
00000390: 5d66 03be 9e27 a9be e76c c0bc a77d 293e
000003a0: 9bd9 17be f3e0 c8bd cf89 bcbd ee25 0dbe
000003b0: e9b0 4a3d fac3 c23c 594f bdbd f7f3 3c3b
000003c0: 79ca c4bd d465 2bbd 9c4d e0bb 009d 40bd
000003d0: d884 173d 4983 bdbd 4e8d b43c 2b40 443e
000003e0: ad89 bfbd 0c66 cf3b 9d86 41be 028e 193e
000003f0: 96a5 2a3c e979 f03d b76e f0bd f15a 64be
-0.14071088 -0.08351485 0.0111829005 0.1599863 0.071187735 -0.049579505 -0.02937766 -0.2574242
0.03039773 0.029797085 -0.20686063 -0.015298842 0.3272475 0.021003544 -0.029150097 -0.31726086
0.0002533398 -0.027666125 -0.031227939 0.016193928 -0.028596098 0.21729475 0.13012633 0.17678633
0.25994462 0.18685284 -0.064017326 0.19285464 0.13269688 -0.25771284 0.14404488 -0.1766446
-0.09395815 0.09163315 0.056202576 0.26075152 -0.024074184 -0.17956124 -0.11354242 0.077284425
0.26561007 -0.0011959174 -0.18969549 -0.15031926 0.020197505 0.06909996 0.13749298 0.02108936
-0.0839019 0.28132212 0.1628697 -0.034196164 0.15311609 -0.20022465 -0.12586583 0.10340614
-0.20778602 -0.1654071 0.038394533 -0.0150553 0.11868805 -0.1598128 -0.30575523 0.17962286
-0.08912726 0.1485607 0.081863634 -0.017093724 0.25747615 -0.23976235 0.06889468 0.007955641
-0.16730312 0.14643693 0.15083131 0.10372915 0.008107981 -0.11969708 -0.09975791 -0.21364385
0.023680916 -0.0061677694 -0.16724518 -0.11042825 -0.086691365 -0.15273905 0.08551026 -0.12322317
-0.082614295 -0.0036330288 -0.29291698 0.13455403 -0.05070436 -0.01029595 0.09144425 -0.27729234
0.10348236 0.117922634 0.1380682 0.1563559 -0.026243946 -0.14596039 0.4172225 0.65039104
0.42362955 0.14423192 -0.119342804 -0.022384109 0.013044138 0.11418619 0.28077093 0.08165446
-0.10923439 -0.07768122 -0.011688562 -0.09243166 -0.061938364 -0.07862996 -0.113603 -0.018276758
-0.19705592 -0.03851044 -0.095483184 -0.15757012 -0.08441181 0.02016079 -0.025635995 0.06098798
0.04921177 0.18513791 0.08294645 -0.040767834 0.028621428 -0.051769525 0.061171878 0.062830456
-0.1253411 0.081206314 -0.042982 -0.13846688 0.16892485 0.011743691 -0.09707638 0.11025118
-0.039070137 0.09809935 -0.003355931 -0.36382884 -0.2083597 -0.33964425 0.022524243 0.20869336
-0.20439754 -0.07819067 0.10091591 0.15594879 -0.097064376 -0.22343609 -0.08055549 0.070648015
-0.048760455 -0.059562378 0.14409521 -0.12501554 -0.06812485 -0.031081432 -0.030101327 0.17981313
0.090800144 -0.10789514 0.13942553 0.30936527 0.1077046 -0.01178744 -0.017481897 -0.29354858
0.08072143 -0.0144357 -0.20219825 -0.37816462 -0.026118217 -0.009986028 0.117821425 0.08597009
0.043625943 0.05656453 0.1417297 -0.050133735 -0.018205032 0.13368066 -0.04521381 -0.06106653
0.09885245 0.0262933 0.10408857 -0.24912195 -0.06313689 0.10437172 -0.04817935 0.075432785
0.21443675 -0.08455371 0.1626281 -0.2024903 -0.08851507 0.28301144 0.2426969 -0.043814324
-0.3447106 0.022486461 0.02334261 0.1006687 0.18397494 0.016744208 0.0996859 -0.07464185
0.064625524 -0.04311266 0.13842037 0.06049006 0.0010495041 0.087400965 0.01601149 0.14525896
-0.17243427 0.03738402 0.11978734 -0.036782112 -0.12832017 -0.33038038 -0.023489429 0.16551839
-0.14829104 -0.09808531 -0.092059724 -0.13784 0.04948512 0.02377509 -0.0924365 0.0028831938
-0.09608931 -0.041845158 -0.0068451893 -0.047024727 0.036991924 -0.09253556 0.022040036 0.19165103
-0.093524314 0.0063293036 -0.18899007 0.14995578 0.010415455 0.117420025 -0.11739867 -0.22300316

conv2.bias f4 [16]
00000000: a4f0 56be f81e 12bd 9ae7 673e 0659 913e
00000010: 59df 9ebc e2b1 123e 1b94 a93e 5f95 703d
00000020: e4d1 193e 26c3 533e bd01 83bb 287b 1abe
00000030: 6499 083e b313 d73d ee42 80bd c49e 55bd
-0.20990235 -0.035674065 0.22646943 0.28388232 -0.01939361 0.1432567 0.33120808 0.0587362
0.15021473 0.20679912 -0.00399801 -0.15086043 0.13339764 0.10501804 -0.06262766 -0.052153364

fc1.weight f4 [120, 400]
00000000: 4bcb f4bc 703e c23d b954 f2b9 9aef 08be
00000010: 23ba 7f3d a820 5a3e f946 c5bd de40 493e
00000020: 6903 2d3d d449 cdbd f7f9 9fbe 1d85 15be
00000030: f527 5f3e 80c5 483d 5fc1 97be f7ae a7be
00000040: 8ce8 52bd 1d77 1bbb e81c aabd 1c8e c7bd
00000050: aeb8 5ebd 2015 8cbd 3b63 2dbd f9fc 143e
00000060: c11a 18bd b677 dd3d 583d ae3e b438 ce3c
00000070: a38e 71bd 0ea9 be3d a606 3cbe cff1 efbd
00000080: 9c73 6abe e7fa 253e 9063 11be 2204 673d
00000090: 3958 033d f227 4d3e ac09 d33d 62ac 48be
000000a0: 1070 733d 80e7 15be c2c1 293e c19a 0c3e
000000b0: b691 e7bd f28c 40be deb0 c33d 60b4 27bd
000000c0: fd30 273e dded d03d c920 173d cf8c 46bc
000000d0: 98b8 9bbd a8bd 943d e234 2abe 2b54 82bd
000000e0: 45c0 f8bc 0b21 fdbc b748 adb9 1008 11bd
000000f0: 00df e4bb 0518 a93d 880e 14bd 6a7f bfbc
00000100: 0ebc 39be 491c b33c 8699 793d 2064 42bc
00000110: bdb7 393d d11d 8e3d 8154 013f a624 dd3d
00000120: 36bd 0bbe 719f d73d 7608 4e3d 86ac 81be
00000130: 469b 4fbc b83f 103e 6d8e 29be e037 ae3e
00000140: a882 913d cc85 c33c e9ef bebc 8c1f cabc
00000150: ed14 c23d 2d60 eebd 151c 7cbe 7a46 06be
00000160: 30e8 b43d 1cd2 ffbd cf61 a4be ee09 efbd
00000170: 7066 143d 7127 053e 3e43 1abe 45d1 a33d
00000180: a363 f8bd 8f3d 31be d76b 4d3d a547 d2bd
00000190: def8 0e3e 253f 2ebd d470 1bbc 0aa2 183e
000001a0: 1077 9bbd 7dff fa3a 6339 c43c bca5 2ebe
000001b0: 7689 b6bd d3b9 27be 052b 75be f8ce ba3d
000001c0: 0c38 043e 9601 c83d 6476 663e 8eec e63c
000001d0: 919f 8f3d d369 c23d 50fc c83d 4852 ec3d
000001e0: 76f6 abbd 9fef b73d 0409 b33d 750e 7bbd
000001f0: 0f37 4abe 53a4 d4bd 620e 1cbe 1384 643e
00000200: 1489 243e ccf3 31be faa4 0e3e b1a8 a1be
00000210: 0aba 9bbd 80f2 4fbe 858b 5e3d e450 063e
00000220: 7780 b1be 6b54 fabd 3547 413e ba97 c43c
00000230: 7fea 533e 5678 ebbd 7010 97bd ae8f 3fbe
00000240: 5e5f 833e 4d78 8b3e 795e 43be cb10 2c3e
00000250: d8c6 d3bd 13ee b73e f5db 363e 249f cf3d
00000260: b7c9 023f 84fa da3d 5462 34bd 6842 d73d
00000270: 0ce2 383d 3d37 b7ba 1260 0abe a6c0 0bbe
00000280: 8a41 cc3d abcd 0c3e a148 56be 63ff f3bd
00000290: ba1f cdbe d34d 4c3d 3c8d 473e 2e1d 0b3d
000002a0: 1d40 b2bc 4a84 0ebf 5b40 f7bd e05d 8a3d
000002b0: ff4a a03d f3f1 38be 9eb7 1abe 24f5 c53e
000002c0: 85be dfbb 04a6 873d 072f 38bb c2bc 06bd
000002d0: b473 8dbe 6c0a 06be 8077 75bd eb0a 853d
000002e0: 63c3 b7bd 2da4 73be 3bfe 8dbd 3624 f6bc
000002f0: d51d 663d 9ec6 97bd f8c3 8cbd 7476 19be
00000300: 2422 33be 3ec9 393e c4f6 53bd 8612 10bd
00000310: 3668 c9bd b6a3 02be c344 123e 54ba 383e
00000320: fb52 3abe 3e06 203e e5d5 113e 07de c03c
00000330: 0880 5f3d 7768 343d 6941 14bd dba4 9f3d
00000340: 7006 a3bd 3486 65bd 1d77 adbe adfd 9c3b
00000350: b492 0c3c 1f89 913d b047 a1bd bbcc 3fbe
00000360: 4e0e d13d dbe0 2a3d 306c 063d d6fc 29be
00000370: f973 c83c a5bc 963d 8e98 17bd 20f5 be3c
00000380: df71 b4bc 29c6 b3bc 14a1 d53d 7bba c1bb
00000390: ebcb bbbe 3264 af3d 0a59 b33e 2544 39be
000003a0: 5b36 fdbc d376 9e3e 1753 943e 88e9 9b3e
000003b0: 9d5f f63c cec0 6abe 1bff a23c 82f7 c03e
000003c0: f762 84bd f97c ebbc 04ee b13d 97c2 f03c
000003d0: 544e 743e c2fe 06be 26ae 39bd 226d 673e
000003e0: f6f6 bbbc 1bab 7c3e 62fa d13e 231e 30bd
000003f0: 7ab2 b9bc d423 843d fa37 27be 4fe7 7b3e
-0.029882094 0.09484565 -0.0004622096 -0.1337265 0.062433373 0.2130152 -0.096326776 0.19653651
0.04223958 -0.10023847 -0.31245396 -0.1460156 0.21792586 0.049016476 -0.29639718 -0.32750675
-0.051491305 -0.002372212 -0.08306295 -0.09743902 -0.054375343 -0.06839967 -0.04233096 0.14549626
-0.03713489 0.10813849 0.34031177 0.025173523 -0.05897392 0.093095884 -0.18361911 -0.11716043
-0.22895664 0.16208993 -0.14198136 0.056400426 0.032066558 0.20034769 0.10304579 -0.19597009
0.059433043 -0.14639091 0.16577819 0.13730909 -0.11307089 -0.18803766 0.09555219 -0.040943503
0.16327281 0.10201619 0.0368965 -0.012118532 -0.07603568 0.072627366 -0.16621736 -0.0636371
-0.030365119 -0.030899545 -0.00033051308 -0.03540808 -0.0069845915 0.082565345 -0.03614667 -0.023376185
-0.18138143 0.021864073 0.060937427 -0.011864692 0.045341242 0.06939281 0.5051957 0.10798006
-0.13646397 0.10528458 0.050301038 -0.25326937 -0.012671297 0.14086807 -0.16558237 0.34027004
0.07104999 0.02386751 -0.023307757 -0.024673246 0.094766475 -0.11639438 -0.24620087 -0.13112822
0.08833349 -0.12491247 -0.32105872 -0.11671816 0.036230505 0.13003327 -0.15064713 0.07998899
-0.12128379 -0.17308639 0.050151672 -0.10267571 0.13962123 -0.042540688 -0.00948735 0.14905563
-0.07591069 0.0019149628 0.023953145 -0.1705541 -0.08912937 -0.1637948 -0.23942192 0.091215074
0.12912005 0.097659275 0.225061 0.02818897 0.07012857 0.094928406 0.0981375 0.115391314
-0.08396618 0.08981251 0.08741954 -0.061293084 -0.19747566 -0.10382905 -0.15239862 0.22316007
0.16067916 -0.17378157 0.13930121 -0.31574014 -0.076038435 -0.2030735 0.054332275 0.13116795
-0.34668323 -0.12223133 0.1887482 0.02399813 0.20694922 -0.11497562 -0.07376182 -0.18707153
0.25658697 0.2724022 -0.19079007 0.16803281 -0.10340661 0.35923824 0.17857344 0.101377755
0.5108904 0.10692313 -0.044039086 0.10510713 0.04513745 -0.0013978254 -0.1351321 -0.13647708
0.09973438 0.13750331 -0.20926143 -0.119139455 -0.40063268 0.049878906 0.1948747 0.033963375
-0.021759087 -0.5567061 -0.12072822 0.067561865 0.07826804 -0.18061046 -0.15109107 0.3866359
-0.0068281316 0.06623462 -0.0028104202 -0.032894857 -0.27627337 -0.13089913 -0.059928417 0.06496223
-0.08972814 -0.23793097 -0.06933256 -0.030046564 0.056180794 -0.0741093 -0.068733156 -0.14986593
-0.17493492 0.18143174 -0.051749006 -0.035173915 -0.0983433 -0.12757763 0.14284043 0.18039829
-0.18195717 0.15627381 0.1424175 0.02354337 0.05456546 0.044044938 -0.036195192 0.077951156
-0.07960212 -0.05603619 -0.3387994 0.0047909827 0.008579899 0.07106232 -0.078750014 -0.18730442
0.102078065 0.041718345 0.03281802 -0.16600356 0.024469363 0.073602 -0.03701072 0.023310244
-0.022026954 -0.021945076 0.10431114 -0.005912123 -0.36679015 0.085640326 0.3502887 -0.18092401
-0.030909708 0.3095003 0.28969643 0.30451608 0.030074889 -0.22925112 0.019897034 0.37688833
-0.064641885 -0.028746115 0.08687976 0.029389663 0.23858005 -0.1318312 -0.045332097 0.22600225
-0.022944909 0.24674647 0.4101134 -0.04299749 -0.022668112 0.06452146 -0.16329947 0.24599956

fc1.bias f4 [120]
00000000: e691 f63d c98c a0bd 57eb 4cbd 2aae f93c
00000010: b827 c53c 8b41 ba3d d6dc 903e 5c1b 91bd
00000020: 9649 5d3c 91d0 b2bc 3a9f 76bd e0d2 153d
00000030: afd1 43bb 7543 7cbc af42 24bd 84e7 13ba
00000040: 2e8b bebc 269e df3d ad8b bdbb d1ce 0a3d
00000050: c433 6fbe 2fdb d3bd 0bd2 343e 6dba 9e3d
00000060: 46ee af3e 3e35 e23d 38ae f03a 9ee0 5cbe
00000070: 7804 09bc 4633 25bc b609 7d3d 5363 1a3e
00000080: aa2c d03b 6389 483e 118e fc3c 8ca9 883e
00000090: 867e 983e ab9a a73d 6a7b 42be 892a 5e3d
000000a0: 31d2 993a 58fd 55bc 4480 19bd 4845 233e
000000b0: 1d74 c2bb 6e3b b3bc fbb5 2cbc 43a9 1a3d
000000c0: 5808 02bd c11c 63bd 57d0 303d 4044 b03d
000000d0: 4839 b1bc 6e01 013e 087c 713e 8b33 963e
000000e0: 0c3c cfbc 986b bdbd a16f b4bd 395d f13d
000000f0: f707 56bd 8c70 5ebe 26e4 dd3c c1c6 6fbc
00000100: 9b40 e03c 3c06 e4bc 5770 163d 6bef 3c3e
00000110: c82d 03be 17a2 b03e 8575 073e 5d0c f63d
00000120: 0421 283e f134 19be b5c8 e93d 7134 4abc
00000130: 047d 3cbd d643 303e 4c3f bd3e 7863 ce3d
00000140: 8037 e9bc 9b1a 093e 6f17 8e3a 3aeb b83d
00000150: 0ea3 ccbd e0c1 b33b d804 9dbc 25c6 5abc
00000160: c101 6abe 7487 1dbe 8af4 44bd e025 f53d
00000170: 0f07 333b 4c0f 913e bf3c 833e bba2 ec3d
00000180: 57ec bd3c df8e 90bc c00e ef3c eb8c a9bc
00000190: 3c4f 81bd e7ad 58bd 10c8 d93c 8593 8bbd
000001a0: a0fd a33d 9921 8bbd 1db1 533e 9c07 953e
000001b0: 9b39 13bc 0c32 a33b fc9b 4ebd 6da3 08bd
000001c0: be79 4e3e 5c82 78bd 61dc 6dbe 6174 5fbe
000001d0: 722d 1a3e a0ee afbd bd72 99ba 344f 86bd
0.12039547 -0.07839353 -0.050029125 0.030478556 0.024066791 0.090945326 0.28293484 -0.070852965
0.013506314 -0.021827968 -0.060210444 0.03657806 -0.002987962 -0.015396942 -0.040102657 -0.00056421035
-0.023259725 0.10918836 -0.005784473 0.03388864 -0.23359591 -0.1034454 0.1765825 0.07750402
0.34361476 0.110453114 0.0018362468 -0.2157006 -0.008362882 -0.010083025 0.06177684 0.15076952
0.0063529806 0.19583659 0.030829461 0.26691854 0.2978403 0.081837974 -0.18992391 0.054239783
0.0011735616 -0.01306089 -0.03747584 0.15944397 -0.005934252 -0.021878924 -0.010541434 0.037759077
-0.03174624 -0.055447344 0.04316744 0.08606768 -0.02163376 0.12598202 0.2358247 0.293362
-0.025297187 -0.092490375 -0.08810354 0.11785359 -0.05225369 -0.2172262 0.027086329 -0.014634789
0.027374556 -0.027835004 0.03672823 0.18450706 -0.12810433 0.34498665 0.13228424 0.12014077
0.16418844 -0.14961602 0.11415235 -0.012341605 -0.04601766 0.17213377 0.36962354 0.10077566
-0.028468847 0.13389055 0.0010840724 0.09029241 -0.09992038 0.005485758 -0.019167349 -0.013352905
-0.22852232 -0.15383703 -0.048084773 0.11970115 0.002731744 0.28331983 0.25632283 0.11554476
0.023183985 -0.017646251 0.029181838 -0.020697078 -0.06313941 -0.05290022 0.026584655 -0.068152465
0.080073595 -0.067935176 0.20673032 0.29107368 -0.008985902 0.0049803313 -0.050441727 -0.03335898
0.20163628 -0.060671195 -0.23228599 -0.21821739 0.15056399 -0.08590436 -0.0011707168 -0.065580755

fc2.weight f4 [84, 120]
00000000: 6ba5 1fbd 8a8b 03bd 27f9 e0bc cc44 8ebd
00000010: ab86 05bd 513f 4d3c 01fd 413e 4080 17bc
00000020: 9664 ff3c bbf5 96bd a498 093d 7f28 353d
00000030: 8327 233e 839f 71bd 47e6 86bd 6975 a0bc
00000040: ef96 8e3d a5f7 283d 1343 083d 958d 48bc
00000050: 332b 0c3b 55d5 47bc 3e9f febb 5418 1bbc
00000060: 78c6 563e 567b 0dbe 53fb a43d 64c8 3ebe
00000070: bf04 8d3d d709 a1be 7e7c 083e bd45 89be
00000080: e321 70bd 3262 153d 0f58 b43d d8e9 123e
00000090: 8b30 9d3d 93fe 4c3c e90c b4bc b472 543e
000000a0: e0b5 a1bd f1ea 35bd 41ec 093e ab92 17bb
000000b0: 6b4e a4be 7912 a2bd 9f7b 6dbe 3ef4 dc3c
000000c0: 2574 45bd 1edc 363b b2df d4be 8a8d 4d3e
000000d0: f29e e43c 27e2 98bd 7e9f a2bc e5c1 833d
000000e0: 1fa4 8a3d fcf9 a9be b899 9d3d ddba d2bc
000000f0: 5923 913d 5cf9 d1be 87c1 c6bd 7cef cdbd
00000100: f0a8 bfbb 45c0 a0bd 82a2 68be f2ff e63d
00000110: 75cf 413c ed1f 083e e655 fdbc b2d2 00be
00000120: 3f4b 11bd afd8 a3bd 7de0 803d cab4 2dbd
00000130: 1803 bb3d a401 413e 4c35 893b c08f 183e
00000140: 36a9 b33c 848f 15bd b064 e3bc fe18 e1bd
00000150: 9abe efbe 6f88 5fbc 0c84 23bc 555a 06bc
00000160: 549d 06bf 6449 1cbe f385 fd3c 44c6 b9bd
00000170: 17c9 173e 77b8 7e3e 0c78 a43e a7f1 57bb
00000180: bfd1 113e 0cfa 24bd 6edc 103d cfe6 0a3d
00000190: 7b74 853d 094b 15be ceeb ce3d a123 663e
000001a0: 7bc3 f0bd 2d28 933e 0f54 133e e06a 443e
000001b0: 8472 523d 555f 8abd 8bcd 2b3d 4d04 203e
000001c0: 508b 793d 9a06 9d3d f1bc b6bd 05ee bd3c
000001d0: 9870 883d 4461 cabe 9645 0f3e 69ef 3c3e
000001e0: 8a98 a43e b2b1 dcb7 f732 923d 0196 a7bd
000001f0: 4c00 ae3d 4dd8 7f3d aa33 013e 0c6c 113d
00000200: 6b4d 553d 6e1e bb3b 84a2 1cbd 98b3 9bbd
00000210: 5436 493c 5393 ce3c 32a0 bf3d 344e 14bd
00000220: 06d4 a5be c2bd c53c 3a60 3ebd d3e6 903d
00000230: e927 82bc d779 19bc ab11 043e 7e87 323e
00000240: 66e3 b1bb 7cc7 46be 18e2 e8bc 909f 0bbe
00000250: b47b 393d 9be7 9a3d 7cf1 ab3d 1c9b 6cbd
00000260: b416 53bd d149 303e 9961 46bd fe3e c7bd
00000270: 878c 8a3e cdc4 fa3d abfb dabe 583c 813e
00000280: 5944 0dbd be74 82bd e315 923d 5bba a8bc
00000290: 6cdd 523d a159 12bd a6bd f0ba 467f 9d3d
000002a0: 9b7e 813d 5679 853d f3ca 093e 219b ccbb
000002b0: 6e4c 0c3d 7496 8bbd da46 8cbc 139c f6bc
000002c0: b3a5 20bd f6d7 4c3e 3ea2 c43c 9926 b53e
000002d0: 2c67 09bd 7e58 97be f8a7 af3e 40af f23d
000002e0: c3d5 5dbd b406 2b3d 809b 873e 98ee c1bd
000002f0: a56d 69be faae 7ebc 14c4 ba3e 878b e7be
00000300: 5460 443e f246 febd af47 f9bc f7ce 0b3e
00000310: 9a18 76be 9a77 3dbd 5c12 2c3d 2b8a 5d3e
00000320: bc82 693d 8d87 9b3e 57a1 8d3e 56d6 733e
00000330: 6fb3 0d3e f463 b53d d6ae 86bd 0adc 9c3d
00000340: 53f0 1bbf e599 8b3d 3526 953d 3ee2 8cbd
00000350: 4730 a13e 5269 5ebe caf7 043e 4191 153e
00000360: c1e9 61bd 6d32 393d 643f 9bbd c755 bdbd
00000370: bfd1 02bb aee1 88be 2cd6 3d3d 492c a1bd
00000380: 0383 aa3c 3bfd 8ebb 5970 d3be e7ba a33d
00000390: 5d73 d2bc e7b9 0bbd 755f 893d 4e92 b3be
000003a0: 3916 8fbe 4861 36bc 8fe7 053d c621 883d
000003b0: 1ec4 29bd 4509 873d 7b51 a03d dc06 c43c
000003c0: b1a6 b03d 3062 cabc 2d43 5d3b 346b 6f3c
000003d0: 1f91 b9bd d18b 4b3e 33c9 23be cda3 b3bc
000003e0: b38a d03c 6d59 bfbb 0a90 53bd 2f94 5abd
000003f0: 5f62 1bbe 6631 bc3d 6e75 f2bc 3164 263c
-0.038976114 -0.032115497 -0.027462555 -0.06946716 -0.032599133 0.012527303 0.1894417 -0.009246886
0.031175893 -0.07371088 0.033592835 0.044228073 0.15933041 -0.058990013 -0.06586891 -0.019587236
0.06962382 0.041251797 0.033267092 -0.012240787 0.0021388053 -0.012196858 -0.007770448 -0.0094662495
0.20974147 -0.1381658 0.08055749 -0.1863113 0.06885671 -0.3145282 0.1332874 -0.2681102
-0.058626067 0.0364706 0.08805858 0.14347017 0.076752745 0.012511867 -0.021978812 0.20746881
-0.07896018 -0.04441351 0.1346903 -0.0023128192 -0.32091078 -0.0791368 -0.23191689 0.026971933
-0.048206467 0.0027902196 -0.41576916 0.20073524 0.027907822 -0.0746501 -0.019851442 0.06433467
0.06769585 -0.33198535 0.07695335 -0.025723869 0.0708682 -0.4101056 -0.09704881 -0.10055444
-0.0058489963 -0.078491725 -0.22718242 0.112792864 0.011829247 0.13293429 -0.030924749 -0.12580374
-0.03547215 -0.080003135 0.06292818 -0.042408742 0.091314495 0.18848282 0.0041872617 0.14898586
0.021931272 -0.03651382 -0.027757972 -0.10991095 -0.46825105 -0.013643368 -0.009980213 -0.008200248
-0.52583814 -0.15262371 0.030947661 -0.09071019 0.14822803 0.24875055 0.32122838 -0.0032950433
0.14240168 -0.040277526 0.035366468 0.033911522 0.065163575 -0.14579405 0.1010357 0.22474529
-0.11756035 0.2874159 0.14387535 0.19181395 0.05137874 -0.067564644 0.041944068 0.1562664
0.060923874 0.07667275 -0.089227565 0.023184786 0.066621006 -0.39527333 0.13991389 0.18450703
0.32147628 -2.630879e-05 0.07138627 -0.08182908 0.084961504 0.06246214 0.12617365 0.035503432
0.052075785 0.0057104146 -0.038240924 -0.07602614 0.012281019 0.025216734 0.09356727 -0.036207393
-0.32388324 0.024138335 -0.046478488 0.07075276 -0.015888171 -0.009367428 0.12897365 0.17434499
-0.0054287193 -0.19412035 -0.028428122 -0.13635087 0.045283988 0.075637065 0.08395669 -0.05776511
-0.051535323 0.17215659 -0.04843292 -0.09728812 0.2706034 0.12244568 -0.42770132 0.2524135
-0.03448901 -0.06369923 0.07133081 -0.020596674 0.051480696 -0.035730008 -0.0018367067 0.07690291
0.06322976 0.065172836 0.13456325 -0.0062440787 0.034252577 -0.06815806 -0.017123628 -0.030103719
-0.039220523 0.20004258 0.024003144 0.3538101 -0.033545658 -0.29559702 0.34307837 0.118498325
-0.054158937 0.04175444 0.26485825 -0.09469336 -0.22795732 -0.015544647 0.3647772 -0.45223638
0.19177371 -0.124158755 -0.03042969 0.1365317 -0.24032822 -0.04625664 0.042009696 0.21634738
0.057009444 0.30376855 0.27662155 0.23812231 0.1383798 0.08856955 -0.06576316 0.076591566
-0.6091358 0.068164624 0.07282678 -0.0687909 0.31482145 -0.21719864 0.12985149 0.14606191
-0.055154566 0.045214105 -0.0758045 -0.09244876 -0.0019961444 -0.2673468 0.04634683 -0.07869775
0.020814424 -0.0043636835 -0.41296652 0.07994633 -0.025689775 -0.034112837 0.0670766 -0.3507256
-0.27946642 -0.011131592 0.032691535 0.06647067 -0.041446798 0.06593565 0.07828041 0.023929052
0.08625544 -0.024705023 0.0033761964 0.014612962 -0.09060883 0.19877554 -0.1599472 -0.021928692
0.025456762 -0.005839518 -0.05165104 -0.053363975 -0.15174244 0.091891095 -0.02959701 0.010155723

fc2.bias f4 [84]
00000000: 5738 073e b77a 3c3e 576d debd 8007 c43d
00000010: 24eb 203e 9eba 2fbc 14ad 2a3e 6110 063e
00000020: f801 61bd fc4e 643e 5385 03be 4011 9ebc
00000030: 5b84 043e e713 443e 7cd3 863e 2895 06be
00000040: a4c0 afbd 9ae2 693e 165d b8bd c943 893d
00000050: 2439 1c3e d425 853e 1a01 9bbd 9e44 933d
00000060: c5d8 343e 99cd ccbb 25dd 7b3e e7dd c03d
00000070: a90f 27bd f82f 363e c725 9c3e 6359 4b3e
00000080: a76d d2bd 8790 183e 34d4 20bd 99b7 e03d
00000090: d2d6 753e 9e56 823d de3f 533e b896 123a
000000a0: 38cf 723d f62d 1bbe 070f e93b 7b2f 9abd
000000b0: d514 26be 4157 843e 47e3 f03a db2c 863d
000000c0: 89aa c53e 9281 b83e 64b7 ee3c 12b0 923d
000000d0: 113a ad3e 142e 8f3d 1544 4c3e 11ba 283e
000000e0: 6783 ffbd fba8 bf3e f698 1d3e ec01 e23d
000000f0: f995 6b3d 0b7c bf3d d3e0 80bd 68f8 c93d
00000100: 563e 82bd 7a86 24be 6031 e3bd 7e53 bb3c
00000110: 0c60 41bd f1da 913e 7261 a23d a40c 863c
00000120: 10b4 fb3b ee42 2f3e cc4b c03d b52a b63e
00000130: 2e09 b23d c0c2 5fbe b5e2 6dbd 24ea 743d
00000140: c9d4 71be 3257 443e 278e fcbd ecbd 7d3e
0.13205086 0.18406187 -0.10860699 0.09571743 0.15714699 -0.010725645 0.16667587 0.13092186
-0.05493352 0.22295755 -0.12843828 -0.019295335 0.12941115 0.19148217 0.26333225 -0.13142836
-0.08581665 0.22840348 -0.0900213 0.06702382 0.15256172 0.26005423 -0.075685695 0.07190822
0.17660816 -0.006250095 0.24596079 0.094173245 -0.04078642 0.17791736 0.30497572 0.19858317
-0.10274821 0.14898883 -0.039264873 0.109725185 0.24007729 0.06364177 0.20629832 0.0005591917
0.05927965 -0.15154251 0.007112387 -0.075285874 -0.16218884 0.2584782 0.0018378281 0.06551524
0.3860667 0.36036354 0.029140182 0.07162489 0.33833364 0.069912106 0.19947846 0.16477229
-0.12476235 0.3743361 0.15390381 0.11035523 0.057516072 0.09349831 -0.06292882 0.09861833
-0.06359546 -0.16066924 -0.11093402 0.02286696 -0.047210738 0.28487352 0.079287425 0.01636345
0.007681377 0.17115375 0.09389457 0.35579458 0.08693157 -0.21851635 -0.058077533 0.059793606
-0.23616327 0.19173887 -0.12331801 0.2477948

fc3.weight f4 [10, 84]
00000000: 55ba c03c f56b 9e3d f89a 0a3e ae81 063d
00000010: 76c2 cebe 0579 393d 0fcd 14bf f8f9 113e
00000020: 9cdc c63e 5c89 61be c36f 1ebe f64e bebd
00000030: 9f94 25bd f6a4 e3be 4a46 55bd 1f90 0f3e
00000040: 8209 253d 3348 0f3e 57f1 123e 2b7a b9bd
00000050: e722 23bf 024b 9fbe f493 c8be dbda f8bd
00000060: 08e9 45be 652d a5be 894b fc3c 9b1e 453e
00000070: e151 08bf d766 28bf b19a d5bc 24ad 493e
00000080: 250d d23d a8e1 1ebe 46ac f5be 1c18 183e
00000090: 5376 1e3e 0dba 493e f71c 0fbe 0a80 93bc
000000a0: 9848 193d d8e1 72be b860 d5bd 55ec 17bf
000000b0: b15c 55be de8c 093e e599 9e3d b8b6 02bf
000000c0: 210a 2c3d e08f 283e 4366 7bbe d37b 7ebc
000000d0: 2ae7 f6be d82a d0be 9142 aabe a079 3d3d
000000e0: 09e9 0a3e b654 223e f7e0 aebe 2c5e b4be
000000f0: 5d4b b23d 3d15 edbe d08b 1e3e dff4 33be
00000100: 083f 48be 1660 94bd 58af 32bd 3ea9 e9bd
00000110: db0a 05be 9339 013d 7b81 db3d 0019 07be
00000120: a946 9dbe aed9 24bc 08de 2d3e 4edb d2bd
00000130: 6cce 12be ad6f 6dbc 73b9 5e3c 357a e63d
00000140: 5c07 a63d 0551 dc3d 308a 8ebd 46d3 b8be
00000150: e3b0 16bf 7ab5 093d 3c4c 8c3e c0d1 5cbf
00000160: 313a 9dbe f4a3 1a3e 9358 c9be 9a11 1abe
00000170: adbd a1be 8adf db3e 2b8e 9cbe c0d8 73bd
00000180: d75b b0be e959 203b 1226 3dbe cbcd d33e
00000190: d593 65bd 613d 85be f0f1 3cbe 6555 a8be
000001a0: f596 8c3c 754d 9d3d 2d8e 043e 916d 10bf
000001b0: 38be cd3d 45e0 0f3f 1e3e 17be 11ed 643e
000001c0: 8767 fa3e 1e8f 64be d424 563e 805f dabe
000001d0: 8ce9 a4bd 5e18 51bc bc16 cfbe fd45 febe
000001e0: 953c 923e f100 3dbe 5dda 41bd 5c48 e13d
000001f0: 2aea 913e c719 94be 1731 723e 8db5 9dbe
00000200: aa89 99be aa61 82be a2eb 19bf ba96 0dbf
00000210: 4aab eebe 9df9 35bd 3aee 393d e0b6 14bf
00000220: c8c3 babe 6944 7d3d aef4 d93d 28b6 2abf
00000230: a507 82be d255 0cbf 1984 d5be 685a dfbe
00000240: 97e9 21bf c999 15bf 2f8e 0fbf cc91 2abf
00000250: ced6 b93e cee9 6c3e c10e 293b c072 a0be
00000260: 317b c0be df35 b8be 6613 edbd 667b 65be
00000270: 7ae2 b2be eec8 2dbe 1f5c 50be baf5 fdbe
00000280: 4fcb 87be b9f3 87bd ea69 73bf b555 a8be
00000290: 2477 563d 2fb5 283b 5b01 c7be 91d4 5f3e
000002a0: f12e 563e eaf4 b4be 8d21 1dbe 2639 393d
000002b0: 3e83 1b3e d213 8cbe ac9e 61be e41b 90be
000002c0: 4f56 84be 67c0 bf3d cd0f 3d3d 280f fb3d
000002d0: b6a7 7dbe 2a9e 95be b9a5 673d b804 acbd
000002e0: ddab 0bbb bfe1 c73d 7f8c c4bd f305 fb3c
000002f0: f680 0c3d 3519 863d 6b3a 81bc bb29 b83d
00000300: c2a0 dcbe da14 ecbd cfed bbbe 966a f7be
00000310: b09d 8abe 3bc5 323e aec7 5a3d 49b5 2b3e
00000320: 4e66 563c 7db1 213c 8e31 6dbe ead3 42be
00000330: 3173 123e dd24 fdbd 2630 d4be a998 23bf
00000340: 4242 843d 1cc2 cdbe 2969 4bbe 757a 4bbe
00000350: 15b1 c1bd 5757 a53b 2f8b 9a3c fc39 93bc
00000360: a0e4 c83e 29a5 5f3e 4c75 92bd fadb f4be
00000370: 807c c93d 1c04 51be fc6f 87be e8e8 a8be
00000380: bb53 103e 85e5 173e ff54 443d 83ff eebd
00000390: fd7d bc3d 0bda e33d 36ba 77bd 6bae 3abf
000003a0: 1a88 e13c ef09 bdbb 7165 4abd 6c83 adbe
000003b0: 25bd 93be 8038 9a3d 56ff c0be 6aaa 6fbe
000003c0: d8b1 dfbd 8df9 87be 944f 3d3e 3f28 f83d
000003d0: 248e d5bd 22fd ac3c 2b99 96be 8007 263e
000003e0: b8bf 543d c3dd a8be e6a9 b3bc a023 ccbe
000003f0: dc84 813d 5704 543e 1e9d 6abd fca4 82be
0.02352635 0.07735435 0.13535678 0.032838516 -0.40382737 0.04528143 -0.58125395 0.14255512
0.38840187 -0.22025055 -0.15472321 -0.09292404 -0.04042494 -0.44461793 -0.052068986 0.14019822
0.04029227 0.13992386 0.14349876 -0.09056505 -0.6372513 -0.31111914 -0.3917538 -0.12151118
-0.19327176 -0.32261196 0.030797737 0.19249956 -0.5324994 -0.6578192 -0.02607474 0.19694954
0.10256413 -0.15515769 -0.47982997 0.14852947 0.15474825 0.19699879 -0.13975893 -0.01800539
0.037422746 -0.23718965 -0.10418838 -0.5934499 -0.2083614 0.13432643 0.07744197 -0.51060057
0.042001847 0.16461134 -0.24550728 -0.015532452 -0.4822324 -0.40657687 -0.3325391 0.04625857
0.13565458 0.15852627 -0.3415601 -0.35228097 0.08705781 -0.46305266 0.15483022 -0.1757388
-0.19555295 -0.072448894 -0.043624252 -0.114092335 -0.12992422 0.031549048 0.10718056 -0.1319313
-0.30717972 -0.0100616645 0.1697923 -0.10295735 -0.14336556 -0.014491958 0.013594019 0.11253778
0.081068724 0.10757641 -0.06959951 -0.3609869 -0.5886366 0.033620335 0.27401912 -0.86257553
-0.3070846 0.15101606 -0.3932539 -0.15045777 -0.31590024 0.42943984 -0.30577216 -0.05953288
-0.34445068 0.0024467653 -0.18471554 0.41367945 -0.056049187 -0.2602339 -0.18451667 -0.3287765
0.017161826 0.076807894 0.12944861 -0.56417185 0.10046047 0.56201583 -0.1476979 0.22356059
0.4890711 -0.2232022 0.20912486 -0.42650986 -0.08052358 -0.012762157 -0.40447032 -0.49662772
0.28561845 -0.1845739 -0.047327388 0.110001296 0.28498966 -0.28925917 0.23651539 -0.30802575
-0.29987842 -0.25465137 -0.6012517 -0.55308115 -0.46615058 -0.044427503 0.045393206 -0.58091545
-0.36477494 0.06183282 0.10642372 -0.666842 -0.25396457 -0.5481845 -0.41702345 -0.43623662
-0.63247055 -0.5843778 -0.5607633 -0.6662872 0.36296695 0.23136064 0.0025796148 -0.31337547
-0.37593988 -0.359786 -0.115759656 -0.22410354 -0.34938413 -0.1697118 -0.20347641 -0.49601537
-0.265223 -0.06638283 -0.9508349 -0.3287789 0.052359715 0.002574276 -0.38868222 0.21858431
0.20916344 -0.35343105 -0.1534483 0.045220517 0.15186784 -0.27358872 -0.22033185 -0.2814628
-0.25847098 0.0936287 0.046157647 0.1225875 -0.24771008 -0.29222232 0.05655453 -0.083993375
-0.0021312155 0.097598545 -0.0959711 0.030642485 0.034302674 0.065477766 -0.015774926 0.089923345
-0.43091398 -0.115274146 -0.3670487 -0.48323506 -0.2707343 0.1745805 0.053413086 0.16768374
0.013085915 0.009868977 -0.23163435 -0.19026151 0.14301755 -0.12360547 -0.41442984 -0.63904816
0.0645795 -0.40187156 -0.19864334 -0.19870932 -0.09457604 0.005045812 0.018865196 -0.017971985
0.39236927 0.21840347 -0.07151279 -0.4782408 0.098381996 -0.20411724 -0.26452625 -0.32990193
0.1409444 0.14833649 0.04793262 -0.11669829 0.09203718 0.11125573 -0.06048032 -0.7292239
0.027530719 -0.0057690064 -0.04941315 -0.3388933 -0.28855243 0.07530308 -0.37694806 -0.23404852
-0.10922593 -0.2655758 0.18487388 0.12117051 -0.10427502 0.021116797 -0.29413733 0.16213799
0.05194065 -0.3298169 -0.0219316 -0.3987093 0.06324169 0.2070478 -0.057278745 -0.25516498

fc3.bias f4 [10]
00000000: 9971 81bd 46b7 54be e5e6 383e 4081 843e
00000010: 5685 11be c6f8 b0bd bc67 0f3e 55aa 903d
00000020: 508c 8d3d ebe2 35be
-0.06320495 -0.20773038 0.1805683 0.2587986 -0.1421102 -0.086412 0.14004415 0.07063738
0.06911528 -0.17762344
