models/lenet5_quantized_int8.pth (torch, 75838 bytes, 7 tensors)

conv1.weight f4 [6, 1, 5, 5]
0	0xbc5ba759	-0.013406598
1	0xbe514f2a	-0.20440355
2	0xbd8803d8	-0.06641358
3	0xbe8e0eeb	-0.27745757
4	0x3e231290	0.1592505
5	0xbd648e4f	-0.05579978
6	0xbd817d68	-0.063227475
7	0xbe78ea44	-0.24308115
8	0xbcdb9fe6	-0.026809644
9	0x3e1a25d9	0.150535
10	0xbd1c917a	-0.038224675
11	0x3d24f020	0.040268064
12	0x3e4b6735	0.19863589
13	0x3ec2b438	0.3802812
14	0x3ef17456	0.4715907
15	0x3db0538a	0.08609684
16	0x3e1c9ef1	0.15295006
17	0x3edd213d	0.4318942
18	0x3f057a6a	0.52139914
19	0xbde15d9b	-0.11004182
20	0x3bad35de	0.0052859625
21	0x3d89a7b7	0.06721442
22	0xbdbc222d	-0.09186206
23	0xbf37a0d5	-0.71729785
24	0xbf3612a3	-0.7112219
25	0xbc4a6713	-0.012353676
26	0x3e2f5f61	0.17126228
27	0x3eac47e3	0.33648595
28	0xbe0f2632	-0.13979414
29	0xbed9a84e	-0.4251122
30	0xbdfe2c32	-0.12410773
31	0x3ea99f14	0.3312918
32	0x3f1206d3	0.5704166
33	0x3e1ffa3e	0.15622804
34	0xbee64fd4	-0.4498278
35	0x3eb364d2	0.35037857
36	0xbe3d11d8	-0.18463838
37	0x3eb8352d	0.3597807
38	0x3d9ea05a	0.077454284
39	0x3da0cde9	0.07851774
40	0xbde77d86	-0.113032386
41	0xbf03ac16	-0.5143446
42	0x3ebda467	0.37039492
43	0xbd9028a8	-0.070390046
44	0xbd8a2a6d	-0.06746373
45	0xbe22d98d	-0.15903302
46	0xbf0baa86	-0.54557073
47	0x3ec58026	0.38574332
48	0xbe2da287	-0.1695653
49	0xbd8c1184	-0.06839278
50	0x3c1fb7fd	0.009748456
51	0xbcdc581b	-0.02689748
52	0x3d65c73d	0.05609821
53	0x3e33329f	0.17499779
54	0xbdd0f5e0	-0.10203147
55	0xbe6d93db	-0.23200934
56	0x3d04eea9	0.032454167
57	0x3cf4077b	0.029788723
58	0x3e97a413	0.29617366
59	0xbea60cc4	-0.32431614
60	0xbd9cce8a	-0.07656582
61	0x3df11cf2	0.11773099
62	0xbe85b7e7	-0.2611687
63	0x3f3d5313	0.73954886
64	0xbefef837	-0.49798748
65	0xbe7534d4	-0.23945934
66	0x3daa7c7a	0.08324523
67	0xbe4ddbce	-0.2010338
68	0x3f2fac64	0.6862242
69	0xbe3baef7	-0.18328463
70	0xbec5ee68	-0.38658452
71	0x3e556403	0.20838933
72	0x3cafd1bb	0.021462312
73	0x3e2d050a	0.16896453
74	0x3c9ff22e	0.01952466
75	0xbea0b6f2	-0.31389576
76	0x3cbf3036	0.023338418
77	0x3e8c82e7	0.2744362
78	0xbe4c1d17	-0.19932972
79	0x3de2ac9c	0.11068079
80	0xbe54a0eb	-0.2076451
81	0x3e5716ee	0.2100484
82	0x3ec11ad6	0.37715787
83	0xbd59c4e1	-0.053166274
84	0xbd3f1434	-0.046650127
85	0x3d8fecb5	0.0702757
86	0x3ed75be0	0.42062283
87	0x3e8db231	0.27675012
88	0xbdbddf71	-0.09271134
89	0xbd0be9b8	-0.03415844
90	0x3e87fe57	0.26561233
91	0x3ed9fef6	0.42577332
92	0xbd958c77	-0.07302182
93	0x3b825b6c	0.0039781835
94	0x3d79aeb1	0.060957614
95	0xbe32a938	-0.17447364
96	0x3e411e7e	0.18859288
97	0x3ce7b4d6	0.028284471
98	0xbe4bd2ca	-0.19904628
99	0xbde81bd1	-0.113334306
100	0x3d6a1074	0.057144597
101	0x3d0d2a0d	0.03446393
102	0xbe16abb8	-0.14713943
103	0xbefdb82f	-0.49554583
104	0xbf46fdec	-0.77731204
105	0x3dc9874f	0.09840261
106	0x3d709454	0.058735207
107	0xbc5ce98a	-0.013483414
108	0xbec45fdd	-0.38354388
109	0xbf4709ad	-0.7774914
110	0xbdead802	-0.114669815
111	0x3f17aab0	0.59244823
112	0x3ee00300	0.4375229
113	0x3ee37ce3	0.44431219
114	0x3e46db26	0.19419536
115	0x3dd0c303	0.101934455
116	0x3e87fcfe	0.26560205
117	0x3d740751	0.05957729
118	0x3e12093c	0.14261335
119	0xbded34b1	-0.11582316
120	0xbd98c8d7	-0.07460182
121	0x3d8c377b	0.068465196
122	0x3e291981	0.16513635
123	0x3d4a6ff6	0.04942318
124	0x3d3b042c	0.045658275
125	0x3e596dc0	0.21233273
126	0xbe9182ba	-0.2842005
127	0x3da4ebcc	0.08052787
128	0xbde292a8	-0.11063129
129	0x3e6fc326	0.23414287
130	0xbddba877	-0.107254915
131	0xbf371b74	-0.71526265
132	0x3e145a59	0.1448759
133	0x3e25e134	0.1619919
134	0x3e8c10b8	0.27356505
135	0xbe524f92	-0.20538166
136	0xbf51f308	-0.8201146
137	0x3d709620	0.05873692
138	0x3e9c6d3f	0.30552098
139	0x3cbac9be	0.022801276
140	0x3a17420e	0.0005770036
141	0xbeedfe25	-0.4648296
142	0x3ea8e382	0.32986075
143	0x3e5def68	0.21673357
144	0x3e2b318f	0.16718124
145	0x3eb0fe23	0.3456889
146	0xbe8c1ac4	-0.2736417
147	0xbba741a8	-0.0051042624
148	0x3eb232c5	0.3480436
149	0xbd5cc1f0	-0.05389589

conv1.bias f4 [6]
0	0xbc1c1bf1	-0.009528146
1	0xbb3a92c5	-0.002846883
2	0xbc3cca60	-0.011522859
3	0xbdad9d03	-0.08477213
4	0x3d8c05cf	0.068370454
5	0x3e2e0541	0.16994192

conv2.weight f4 [16, 6, 5, 5]
0	0xbe124ebc	-0.14287847
1	0xbde92d5e	-0.11385606
2	0x3ca1a8e4	0.019733854
3	0x3dc51013	0.096222065
4	0x3def83ca	0.11695059
5	0xbe562d90	-0.20915818
6	0x3dd1844e	0.10230313
7	0xbe8551af	-0.26038882
8	0x3e170898	0.14749372
9	0x3d68a700	0.05679989
10	0xbea8a68c	-0.32939565
11	0xbcfdc827	-0.03097923
12	0x3f1c1ba3	0.6097967
13	0x3dccdd2c	0.10003123
14	0xbea466c5	-0.32109657
15	0xbeff4493	-0.49857005
16	0xbe07d5c3	-0.13265137
17	0xbe0e9806	-0.1392518
18	0x3cc6c909	0.024265783
19	0x3ba0e4f2	0.004910105
20	0xbd6b45e9	-0.05743972
21	0x3ea84ff1	0.3287349
22	0x3e0f565b	0.13997786
23	0x3e42d2ab	0.19025676
24	0x3e9df27b	0.3084906
25	0x3e47fc9e	0.1952996
26	0xbe14276a	-0.1446816
27	0x3e9f3081	0.31091693
28	0x3e6f3f0e	0.23363897
29	0xbed4684c	-0.41485822
30	0x3e4c17bc	0.19930929
31	0xbe8e8b89	-0.27840832
32	0xbe0d43c4	-0.13795382
33	0x3e0e246f	0.13881086
34	0xbd4d0a50	-0.050058663
35	0x3e95fa17	0.29292366
36	0xbc6db57d	-0.014508602
37	0xbe872e38	-0.2640245
38	0xbe8de8db	-0.27716717
39	0x3de4908e	0.11160384
40	0x3eb57b86	0.35445803
41	0x3d661f69	0.0561823
42	0xbe5988b3	-0.21243553
43	0xbe613fe4	-0.21997029
44	0x3e017b19	0.12644614
45	0x3dd04189	0.1016875
46	0x3e21608e	0.15759489
47	0x3cd2d9f8	0.025738701
48	0xbe2c6df3	-0.16838817
49	0x3ee0c338	0.4389894
50	0x3e795e6d	0.24352427
51	0xbd785c89	-0.060635123
52	0x3e27cc41	0.1638651
53	0xbe9a4f47	-0.3013861
54	0xbdf1999f	-0.11796879
55	0x3e2058de	0.156589
56	0xbea17174	-0.3153187
57	0xbea5fcdc	-0.3241948
58	0x3daa812c	0.08325419
59	0xbd575cfc	-0.05257891
60	0x3dd04e38	0.10171169
61	0xbe13fe7c	-0.14452547
62	0xbf06b89a	-0.5262543
63	0x3e961369	0.29311684
64	0xbe0d8b72	-0.13822725
65	0x3df2651c	0.11835691
66	0x3e01ae3b	0.1266412
67	0xbd404d3c	-0.046948656
68	0x3eb0ebf8	0.3455503
69	0xbeac7c33	-0.33688506
70	0xbbc8572c	-0.0061139073
71	0x3da22199	0.079165645
72	0xbe2a5b33	-0.16636352
73	0x3e066e42	0.13127998
74	0x3e681814	0.22665435
75	0x3dfb7537	0.12278216
76	0xbd0d0817	-0.034431543
77	0xbe1224d1	-0.14271857
78	0xbe235ef1	-0.15954186
79	0xbe965cb4	-0.29367602
80	0x3c29764e	0.010343147
81	0x3b88aaed	0.0041707666
82	0xbe6428f8	-0.22281253
83	0xbe3afa66	-0.18259582
84	0xbdf33af2	-0.11876477
85	0xbe84628b	-0.25856432
86	0x3d0e6441	0.03476358
87	0xbe00889a	-0.1255211
88	0xbdc7c0cb	-0.09753569
89	0x3d54a2b7	0.05191299
90	0xbed8af4c	-0.4232124
91	0x3de4398b	0.11143788
92	0xbdba12e4	-0.09085634
93	0xb9b22483	-0.0003397801
94	0x3e17195f	0.14755772
95	0xbeb10786	-0.34576052
96	0x3dadb243	0.08481266
97	0x3e356cc4	0.17717272
98	0x3e46eb46	0.19425687
99	0x3e4c4df5	0.19951613
100	0xbe190466	-0.14943084
101	0xbe834bed	-0.25643864
102	0x3f078152	0.529317
103	0x3f50ed90	0.8161249
104	0x3ef4b9ed	0.477981
105	0x3e1c955b	0.1529135
106	0xbe2ac574	-0.16676885
107	0xba04332d	-0.0005043026
108	0x3d29e877	0.04148146
109	0x3db0c7df	0.086318724
110	0x3e8a9846	0.270693
111	0x3e037d23	0.12840705
112	0xbe0e3f6b	-0.1389138
113	0xbd0f5e76	-0.035002194
114	0xbd04cf97	-0.032424536
115	0xbe0d3bde	-0.13792369
116	0x3bd120b6	0.0063820733
117	0xbd82d447	-0.06388145
118	0xbe1337ff	-0.1437683
119	0x3c1e09be	0.009645877
120	0xbe902dd5	-0.28159967
121	0xbd8ba4a9	-0.06818516
122	0xbddf8bcf	-0.10915338
123	0xbe4fb909	-0.20285429
124	0xbe0cce10	-0.13750482
125	0x3d8403a7	0.06446009
126	0x3c0c294b	0.008554767
127	0x3d3854e9	0.04500285
128	0xbb0733bc	-0.0020630201
129	0x3e28b301	0.16474535
130	0x3dd0ce2a	0.10195573
131	0xbda6bdd0	-0.081416726
132	0x3c2e9893	0.010656494
133	0xbda601ae	-0.08105789
134	0x3cabd87d	0.020977253
135	0x3dc0ebd4	0.09419981
136	0xbe241f8b	-0.16027658
137	0x3e435ecb	0.1907913
138	0xbbfc7a7a	-0.00770503
139	0xbe23ee8e	-0.1600897
140	0x3e7e62c7	0.24842368
141	0xbc5a522e	-0.013325257
142	0xbd8beaa9	-0.06831867
143	0x3e00ad53	0.12566118
144	0x3db78841	0.08961535
145	0x3de4cb17	0.11171549
146	0x3d559843	0.05214716
147	0xbed032c5	-0.40663734
148	0xbe31a3cf	-0.17347644
149	0xbf046caa	-0.5172831
150	0xbdad934f	-0.084753625
151	0x3ea815a3	0.32829008
152	0xbe65d020	-0.22442675
153	0xbe1c2cab	-0.15251414
154	0x3e65dcdd	0.22447534
155	0x3e1ed3c3	0.15510468
156	0xbe48a28f	-0.19593261
157	0xbeb4a8d2	-0.3528505
158	0xbc9027dc	-0.017597131
159	0x3e0b93ee	0.1363065
160	0xbcc92981	-0.024555923
161	0xbddfc78f	-0.10926735
162	0x3e437857	0.19088875
163	0xbda17f70	-0.07885635
164	0xbde768c1	-0.11299277
165	0xbd5f8c84	-0.054577366
166	0x3d00ef7c	0.03147839
167	0x3e9c1db7	0.3049142
168	0x3e588a5c	0.2114653
169	0xbe80b57a	-0.25138456
170	0x3e40f0ed	0.18841906
171	0x3edc2a61	0.43001083
172	0x3d414708	0.04718688
173	0xbe42d77e	-0.19027516
174	0x3d2481b3	0.040162753
175	0xbf0b33ce	-0.5437592
176	0x3d6e4181	0.05816794
177	0xbe0c289a	-0.13687363
178	0xbe485c51	-0.19566466
179	0xbed00b72	-0.40633732
180	0xbdc0095c	-0.09376785
181	0x3dae32b5	0.08505765
182	0x3e3eddcc	0.18639296
183	0x3e256f9f	0.16155861
184	0x3d8bfe48	0.0683561
185	0x3cbe147f	0.023203133
186	0x3e48c6da	0.19607106
187	0xbdc4e876	-0.09614651
188	0xbda9c27a	-0.082890466
189	0x3e62dd40	0.22154713
190	0xbda222e1	-0.07916809
191	0x3cd79bda	0.026319433
192	0x3d9f7b94	0.077872425
193	0x3e0ea109	0.13928618
194	0x3e23d36f	0.15998624
195	0xbea08e26	-0.3135845
196	0xbe06e89c	-0.13174671
197	0x3d9d94b0	0.076943755
198	0xbd202105	-0.03909399
199	0x3d4cf39b	0.050037008
200	0x3ea0b15f	0.31385323
201	0xbd91510a	-0.07095535
202	0x3e4b7baa	0.19871393
203	0xbea798dd	-0.32733813
204	0xbe6092cf	-0.21931003
205	0x3ed6a9af	0.41926333
206	0x3e9fd8cc	0.3122009
207	0xbde29931	-0.11064375
208	0xbf038f1a	-0.5139023
209	0x3c3f1902	0.011663677
210	0x3dd82209	0.10553367
211	0x3d17466b	0.03693239
212	0x3e7886e1	0.24270202
213	0xbbf7040b	-0.0075383238
214	0x3e34b62e	0.17647621
215	0xbe091da7	-0.13390218
216	0x3d86e797	0.06587141
217	0xbe277e72	-0.16356829
218	0x3e28ceb5	0.16485102
219	0x3d9c8a12	0.07643522
220	0x3ccf1220	0.025277197
221	0x3dd50d50	0.1040293
222	0xbcf2d567	-0.029642774
223	0x3e782d5c	0.24236053
224	0xbe2c3982	-0.16818812
225	0x3d766a44	0.060159937
226	0x3e0bcf06	0.13653192
227	0xbd614822	-0.05500043
228	0xbe092417	-0.13392673
229	0xbef246f2	-0.47319752
230	0xbd9ae845	-0.07563833
231	0x3e75a531	0.23988797
232	0xbe612448	-0.21986496
233	0xbe0653f5	-0.13117965
234	0xbe1df18b	-0.15424173
235	0xbe61e937	-0.2206162
236	0xbca0ea43	-0.019642955
237	0xbc3b3fc2	-0.011428775
238	0xbe407dd5	-0.18798001
239	0x3c2df4dd	0.010617462
240	0xbe32503d	-0.17413421
241	0xbe27565d	-0.16341539
242	0xba8ee899	-0.001090306
243	0xbdcfe00f	-0.10150158
244	0x3d114b68	0.035472304
245	0xbe14e485	-0.14540298
246	0xbd040111	-0.03222758
247	0x3e8ceb37	0.27523205
248	0xbe2ef6ec	-0.1708638
249	0x3cb8a1b0	0.022538036
250	0xbe3ce834	-0.18447953
251	0x3e57c2ce	0.21070406
252	0x3cb50b63	0.022100156
253	0x3d7551ff	0.05989265
254	0xbe0db797	-0.13839565
255	0xbe8783c5	-0.2646772

conv2.bias f4 [16]
0	0xbeb6f96d	-0.35737172
1	0xbdd91b51	-0.10600913
2	0x3e641508	0.22273648
3	0x3eb503c6	0.3535444
4	0x3d070c8d	0.032970954
5	0x3e59eccb	0.21281736
6	0x3ed921a0	0.42408466
7	0x3da08b34	0.07839051
8	0x3e790368	0.24317706
9	0x3e8a0357	0.26955673
10	0xbcd29935	-0.02570782
11	0xbe5ea80a	-0.2174379
12	0x3dde4b40	0.108541965
13	0x3c7d0436	0.0154428985
14	0xbe2b273f	-0.1671419
15	0xbd8b316f	-0.06796538

cpu f4 [120]
0	0x3def3197	0.116793804
1	0xbda08cc9	-0.07839353
2	0xbd4ceb57	-0.050029125
3	0x3d5bd477	0.05366942
4	0xbbbdc777	-0.0057916003
5	0x3de73935	0.11290208
6	0x3ec1f798	0.37884212
7	0xbd911b5c	-0.070852965
8	0x3c5d4996	0.013506314
9	0xbd968597	-0.07349699
10	0xbd769f3a	-0.060210444
11	0x3d15d2e0	0.03657806
12	0xbd8638c7	-0.06553798
13	0xbc7c4375	-0.015396942
14	0xbd2442af	-0.040102657
15	0xba13e784	-0.00056421035
16	0xbdd7d032	-0.10537757
17	0x3e4de316	0.20106158
18	0xbbbd8bad	-0.005784473
19	0x3d3f1134	0.046647266
20	0xbeaa632e	-0.33278793
21	0xbdd4d11a	-0.103914455
22	0x3e8d4548	0.2759192
23	0x3e061802	0.13095096
24	0x3ec3b276	0.38222092
25	0x3e22b7ab	0.15890376
26	0x3c09dd91	0.008414642
27	0xbe9767d9	-0.29571417
28	0x3b66bb65	0.003520691
29	0xbd4821e6	-0.048860453
30	0xbc9ab193	-0.018883502
31	0x3e4e5c98	0.20152509
32	0xbd71589e	-0.058922403
33	0x3e45b2aa	0.19306436
34	0x3cfc8e11	0.030829461
35	0x3eb5a0a5	0.35474125
36	0x3ecfa8ef	0.40558574
37	0x3dd36c92	0.103234425
38	0xbeb34519	-0.35013655
39	0x3d024fb5	0.031814296
40	0x3a99d231	0.0011735616
41	0x3d02b7c0	0.03191352
42	0xbda43432	-0.08017768
43	0x3e2d80ac	0.16943616
44	0xbdd0f39a	-0.10202713
45	0xbcb33b6e	-0.021878924
46	0xbbb93eff	-0.0056532617
47	0x3d96faa4	0.07372025
48	0xbd020858	-0.03174624
49	0xbd631cc1	-0.055447344
50	0x3dd1bcd3	0.102410935
51	0x3deeb6a2	0.11655928
52	0x3dbf20c5	0.09332422
53	0x3dcecb1d	0.100973345
54	0x3e9296d3	0.28630695
55	0x3eebb69e	0.46037763
56	0xbccf3c0c	-0.025297187
57	0xbe3d6cb0	-0.18498492
58	0xbdb46fa1	-0.08810354
59	0x3e1bedcb	0.1522743
60	0xbd5607f7	-0.05225369
61	0xbe8af9fb	-0.27143845
62	0x3da5c2f2	0.080938235
63	0xbc34cde9	-0.011035421
64	0x3c4881d4	0.012237985
65	0xbce4063c	-0.027835004
66	0xbd42b026	-0.04753127
67	0x3e49523f	0.1966028
68	0xbe517aac	-0.20456952
69	0x3ebc7a7b	0.36812195
70	0x3de98dc3	0.11403992
71	0x3e27a4a1	0.16371395
72	0x3e5a5c4a	0.21324268
73	0xbe0cc184	-0.13745695
74	0x3deb166a	0.114788845
75	0xbd651502	-0.055928238
76	0xbd6424c9	-0.055699144
77	0x3e22b9a6	0.15891132
78	0x3f144d3d	0.57930356
79	0x3dc4a8bd	0.09602497
80	0xbce93780	-0.028468847
81	0x3e390c20	0.18071032
82	0xbd4785c5	-0.048711557
83	0x3e1e5250	0.15461087
84	0xbd186543	-0.037205946
85	0x3bb3c1e0	0.005485758
86	0xbc9d04d8	-0.019167349
87	0xbd8c26f3	-0.068433665
88	0xbe72447b	-0.23658936
89	0xbe99a16d	-0.3000597
90	0xbd44f48a	-0.048084773
91	0x3e0bdd57	0.13658653
92	0x3c3606a2	0.01110998
93	0x3e96083e	0.29303163
94	0x3eacf2fa	0.33779126
95	0x3e3b50fb	0.1829261
96	0x3d99d206	0.07510762
97	0xbc908edf	-0.017646251
98	0x3cbb7eef	0.022887675
99	0xbca98ceb	-0.020697078
100	0xbd6cbe1c	-0.05779849
101	0xbda725e2	-0.081615224
102	0xbbec9a1f	-0.007220521
103	0xbe3cc61f	-0.18434952
104	0x3d8678b1	0.06565989
105	0xbddb86b9	-0.10719056
106	0x3e88b1ff	0.266983
107	0x3eaae83f	0.33380315
108	0xbc13ba5a	-0.009016598
109	0x3ba3320c	0.0049803313
110	0xbd4e9bfc	-0.050441727
111	0xbd75cee0	-0.060011744
112	0x3e855431	0.26040795
113	0x3c1f43d2	0.0097207595
114	0xbec1df43	-0.37865648
115	0xbeb928aa	-0.36163837
116	0x3d830e91	0.06399263
117	0xbe123646	-0.14278516
118	0x3b21fdb2	0.0024717865
119	0xbe2c04d9	-0.16798724

cpu f4 [84]
0	0x3e364091	0.17798068
1	0x3e6493ab	0.22321956
2	0xbda4ec9b	-0.080529414
3	0x3c7a2041	0.015266479
4	0x3e59831d	0.21241422
5	0x3d8fe87e	0.07026766
6	0x3e503519	0.20332755
7	0x3e271673	0.16317157
8	0xbda60ab4	-0.0810751
9	0x3e6b8d55	0.23003133
10	0xbe279f59	-0.1636938
11	0xbdca0466	-0.0986412
12	0x3e3dad5b	0.18523161
13	0x3e9faa48	0.31184602
14	0x3e88fe90	0.26756716
15	0x3c1f16fb	0.009710069
16	0xbdcc599d	-0.0997803
17	0x3e021cc4	0.12706286
18	0xbe45d0c9	-0.19317926
19	0x3d2d1e03	0.04226495
20	0x3e015c67	0.12632905
21	0x3ea61bcf	0.3244309
22	0xbc03276c	-0.008005004
23	0x3dfa88ab	0.122330986
24	0x3e9b15aa	0.30289966
25	0x3d8323d7	0.0640332
26	0x3e96de31	0.29466394
27	0x3e413e09	0.18871321
28	0xbe0fa02a	-0.14025941
29	0x3e8d7f85	0.27636352
30	0x3ec25ef7	0.37963077
31	0x3eac84ee	0.33695167
32	0xbdc99750	-0.09843314
33	0x3d97d23a	0.074131444
34	0xbdc36fb9	-0.09542794
35	0x3e01dc7e	0.12681767
36	0x3e9925e1	0.29911712
37	0x3e08367f	0.13302039
38	0x3ea2337b	0.316799
39	0xbcff25bd	-0.031145925
40	0x3d6da417	0.058017816
41	0xbe84b423	-0.25918683
42	0x3dea2b90	0.1143409
43	0xbdc4e630	-0.09614217
44	0xbe273889	-0.1633016
45	0x3e9ed0f5	0.31018797
46	0xbcc8266a	-0.02443238
47	0x3dd1e1b1	0.10248125
48	0x3eefc425	0.46829334
49	0x3ef63a87	0.48091528
50	0xbd5ee911	-0.05442149
51	0x3bca3cc6	0.0061717955
52	0x3eb1d961	0.3473616
53	0x3e00545a	0.12532178
54	0x3e7dad86	0.24773225
55	0x3dc86201	0.09784318
56	0xbe3e7788	-0.18600285
57	0x3eef8ec0	0.46788597
58	0x3e378cad	0.17924757
59	0x3e0c8a67	0.13724671
60	0x3dab3eb2	0.083615676
61	0x3dd8daea	0.105886295
62	0xbe07a922	-0.13248113
63	0x3de94d53	0.113917015
64	0xbadb6484	-0.001673833
65	0xbe49a4b6	-0.19691738
66	0xbe010995	-0.12601312
67	0x3ce189da	0.027531553
68	0xbe12a75d	-0.14321657
69	0x3ef55e8c	0.47923696
70	0x3de0bd7e	0.10973643
71	0xbc3580b6	-0.01107805
72	0xbd448ef7	-0.047987904
73	0x3ea43106	0.32068652
74	0x3ddc8ad7	0.10768669
75	0x3e930ed9	0.28722265
76	0x3c922a63	0.017842477
77	0xbe484049	-0.19555773
78	0xbdb6befc	-0.08923146
79	0xbda9e26c	-0.0829514
80	0xbe8c898c	-0.2744869
81	0x3e3528fc	0.17691416
82	0xbe2403ad	-0.16017027
83	0x3ec9da92	0.39424568

cpu f4 [10]
0	0xbe084ce0	-0.13310575
1	0xbe3c599d	-0.1839356
2	0x3e23d791	0.16000201
3	0x3ebe5d02	0.37180334
4	0xbe1a0117	-0.15039478
5	0xbdaf3c9b	-0.085564815
6	0x3dfab9be	0.12242459
7	0x3de8e8a8	0.11372501
8	0x3da8f6b7	0.08250182
9	0xbe4f27f8	-0.2023009
